…
[38;5;15mdataloader[39m[38;5;197m.[39m[38;5;15mtrain[39m[38;5;197m.[39m[38;5;15mtotal_batch_size[39m[38;5;197m=[39m[38;5;141m4[39m

[10/23 11:27:20] d2.config.lazy WARNING: The config contains objects that cannot serialize to a valid yaml. ./output/config.yaml is human-readable but cannot be loaded.
[10/23 11:27:20] d2.config.lazy WARNING: Config is saved using cloudpickle at ./output/config.yaml.pkl.
[10/23 11:27:20] detectron2 INFO: Full config saved to ./output/config.yaml
[10/23 11:27:20] d2.utils.env INFO: Using a generated random seed 22539810
[10/23 11:27:37] detectron2 INFO: Model:
GeneralizedRCNN(
  (backbone): FPN(
    (fpn_lateral2): Conv2d(192, 256, kernel_size=(1, 1), stride=(1, 1))
    (fpn_output2): Conv2d(256, 256, kernel_size=(3, 3), stride=(1, 1), padding=(1, 1))
    (fpn_lateral3): Conv2d(384, 256, kernel_size=(1, 1), stride=(1, 1))
    (fpn_output3): Conv2d(256, 256, kernel_size=(3, 3), stride=(1, 1), padding=(1, 1))
    (fpn_lateral4): Conv2d(768, 256, kernel_size=(1, 1), stride=(1, 1))
    (fpn_output4): Conv2d(256, 256, kernel_size=(3, 3), stride=(1, 1), padding=(1, 1))
    (fpn_lateral5): Conv2d(1536, 256, kernel_size=(1, 1), stride=(1, 1))
    (fpn_output5): Conv2d(256, 256, kernel_size=(3, 3), stride=(1, 1), padding=(1, 1))
    (top_block): LastLevelMaxPool()
    (bottom_up): MViT(
      (patch_embed): PatchEmbed(
        (proj): Conv2d(3, 192, kernel_size=(7, 7), stride=(4, 4), padding=(3, 3))
      )
      (blocks): ModuleList(
        (0): MultiScaleBlock(
          (norm1): LayerNorm((192,), eps=1e-06, elementwise_affine=True)
          (attn): MultiScaleAttention(
            (qkv): Linear(in_features=192, out_features=576, bias=True)
            (proj): Linear(in_features=192, out_features=192, bias=True)
            (pool_q): Conv2d(64, 64, kernel_size=(3, 3), stride=(1, 1), padding=(1, 1), groups=64, bias=False)
            (norm_q): LayerNorm((64,), eps=1e-06, elementwise_affine=True)
            (pool_k): Conv2d(64, 64, kernel_size=(3, 3), stride=(4, 4), padding=(1, 1), groups=64, bias=False)
            (norm_k): LayerNorm((64,), eps=1e-06, elementwise_affine=True)
            (pool_v): Conv2d(64, 64, kernel_size=(3, 3), stride=(4, 4), padding=(1, 1), groups=64, bias=False)
            (norm_v): LayerNorm((64,), eps=1e-06, elementwise_affine=True)
          )
          (drop_path): Identity()
          (norm2): LayerNorm((192,), eps=1e-06, elementwise_affine=True)
          (mlp): Mlp(
            (fc1): Linear(in_features=192, out_features=768, bias=True)
            (act): GELU(approximate=none)
            (drop1): Dropout(p=0.0, inplace=False)
            (norm): Identity()
            (fc2): Linear(in_features=768, out_features=192, bias=True)
            (drop2): Dropout(p=0.0, inplace=False)
          )
        )
        (1): MultiScaleBlock(
          (norm1): LayerNorm((192,), eps=1e-06, elementwise_affine=True)
          (attn): MultiScaleAttention(
            (qkv): Linear(in_features=192, out_features=576, bias=True)
            (proj): Linear(in_features=192, out_features=192, bias=True)
            (pool_q): Conv2d(64, 64, kernel_size=(3, 3), stride=(1, 1), padding=(1, 1), groups=64, bias=False)
            (norm_q): LayerNorm((64,), eps=1e-06, elementwise_affine=True)
            (pool_k): Conv2d(64, 64, kernel_size=(3, 3), stride=(4, 4), padding=(1, 1), groups=64, bias=False)
            (norm_k): LayerNorm((64,), eps=1e-06, elementwise_affine=True)
            (pool_v): Conv2d(64, 64, kernel_size=(3, 3), stride=(4, 4), padding=(1, 1), groups=64, bias=False)
            (norm_v): LayerNorm((64,), eps=1e-06, elementwise_affine=True)
          )
          (drop_path): DropPath(drop_prob=0.008)
          (norm2): LayerNorm((192,), eps=1e-06, elementwise_affine=True)
          (mlp): Mlp(
            (fc1): Linear(in_features=192, out_features=768, bias=True)
            (act): GELU(approximate=none)
            (drop1): Dropout(p=0.0, inplace=False)
            (norm): Identity()
            (fc2): Linear(in_features=768, out_features=192, bias=True)
            (drop2): Dropout(p=0.0, inplace=False)
          )
        )
        (2): MultiScaleBlock(
          (norm1): LayerNorm((192,), eps=1e-06, elementwise_affine=True)
          (attn): MultiScaleAttention(
            (qkv): Linear(in_features=192, out_features=576, bias=True)
            (proj): Linear(in_features=192, out_features=192, bias=True)
            (pool_q): Conv2d(64, 64, kernel_size=(3, 3), stride=(1, 1), padding=(1, 1), groups=64, bias=False)
            (norm_q): LayerNorm((64,), eps=1e-06, elementwise_affine=True)
            (pool_k): Conv2d(64, 64, kernel_size=(3, 3), stride=(4, 4), padding=(1, 1), groups=64, bias=False)
            (norm_k): LayerNorm((64,), eps=1e-06, elementwise_affine=True)
            (pool_v): Conv2d(64, 64, kernel_size=(3, 3), stride=(4, 4), padding=(1, 1), groups=64, bias=False)
            (norm_v): LayerNorm((64,), eps=1e-06, elementwise_affine=True)
          )
          (drop_path): DropPath(drop_prob=0.015)
          (norm2): LayerNorm((192,), eps=1e-06, elementwise_affine=True)
          (mlp): Mlp(
            (fc1): Linear(in_features=192, out_features=768, bias=True)
            (act): GELU(approximate=none)
            (drop1): Dropout(p=0.0, inplace=False)
            (norm): Identity()
            (fc2): Linear(in_features=768, out_features=192, bias=True)
            (drop2): Dropout(p=0.0, inplace=False)
          )
        )
        (3): MultiScaleBlock(
          (norm1): LayerNorm((192,), eps=1e-06, elementwise_affine=True)
          (attn): MultiScaleAttention(
            (qkv): Linear(in_features=192, out_features=576, bias=True)
            (proj): Linear(in_features=192, out_features=192, bias=True)
            (pool_q): Conv2d(64, 64, kernel_size=(3, 3), stride=(1, 1), padding=(1, 1), groups=64, bias=False)
            (norm_q): LayerNorm((64,), eps=1e-06, elementwise_affine=True)
            (pool_k): Conv2d(64, 64, kernel_size=(3, 3), stride=(4, 4), padding=(1, 1), groups=64, bias=False)
            (norm_k): LayerNorm((64,), eps=1e-06, elementwise_affine=True)
            (pool_v): Conv2d(64, 64, kernel_size=(3, 3), stride=(4, 4), padding=(1, 1), groups=64, bias=False)
            (norm_v): LayerNorm((64,), eps=1e-06, elementwise_affine=True)
          )
          (drop_path): DropPath(drop_prob=0.023)
          (norm2): LayerNorm((192,), eps=1e-06, elementwise_affine=True)
          (mlp): Mlp(
            (fc1): Linear(in_features=192, out_features=768, bias=True)
            (act): GELU(approximate=none)
            (drop1): Dropout(p=0.0, inplace=False)
            (norm): Identity()
            (fc2): Linear(in_features=768, out_features=192, bias=True)
            (drop2): Dropout(p=0.0, inplace=False)
          )
        )
        (4): MultiScaleBlock(
          (norm1): LayerNorm((192,), eps=1e-06, elementwise_affine=True)
          (attn): MultiScaleAttention(
            (qkv): Linear(in_features=192, out_features=1152, bias=True)
            (proj): Linear(in_features=384, out_features=384, bias=True)
            (pool_q): Conv2d(64, 64, kernel_size=(3, 3), stride=(2, 2), padding=(1, 1), groups=64, bias=False)
            (norm_q): LayerNorm((64,), eps=1e-06, elementwise_affine=True)
            (pool_k): Conv2d(64, 64, kernel_size=(3, 3), stride=(2, 2), padding=(1, 1), groups=64, bias=False)
            (norm_k): LayerNorm((64,), eps=1e-06, elementwise_affine=True)
            (pool_v): Conv2d(64, 64, kernel_size=(3, 3), stride=(2, 2), padding=(1, 1), groups=64, bias=False)
            (norm_v): LayerNorm((64,), eps=1e-06, elementwise_affine=True)
          )
          (drop_path): DropPath(drop_prob=0.030)
          (norm2): LayerNorm((384,), eps=1e-06, elementwise_affine=True)
          (mlp): Mlp(
            (fc1): Linear(in_features=384, out_features=1536, bias=True)
            (act): GELU(approximate=none)
            (drop1): Dropout(p=0.0, inplace=False)
            (norm): Identity()
            (fc2): Linear(in_features=1536, out_features=384, bias=True)
            (drop2): Dropout(p=0.0, inplace=False)
          )
          (proj): Linear(in_features=192, out_features=384, bias=True)
          (pool_skip): MaxPool2d(kernel_size=3, stride=2, padding=1, dilation=1, ceil_mode=False)
        )
        (5): MultiScaleBlock(
          (norm1): LayerNorm((384,), eps=1e-06, elementwise_affine=True)
          (attn): MultiScaleAttention(
            (qkv): Linear(in_features=384, out_features=1152, bias=True)
            (proj): Linear(in_features=384, out_features=384, bias=True)
            (pool_q): Conv2d(64, 64, kernel_size=(3, 3), stride=(1, 1), padding=(1, 1), groups=64, bias=False)
            (norm_q): LayerNorm((64,), eps=1e-06, elementwise_affine=True)
            (pool_k): Conv2d(64, 64, kernel_size=(3, 3), stride=(2, 2), padding=(1, 1), groups=64, bias=False)
            (norm_k): LayerNorm((64,), eps=1e-06, elementwise_affine=True)
            (pool_v): Conv2d(64, 64, kernel_size=(3, 3), stride=(2, 2), padding=(1, 1), groups=64, bias=False)
            (norm_v): LayerNorm((64,), eps=1e-06, elementwise_affine=True)
          )
          (drop_path): DropPath(drop_prob=0.038)
          (norm2): LayerNorm((384,), eps=1e-06, elementwise_affine=True)
          (mlp): Mlp(
            (fc1): Linear(in_features=384, out_features=1536, bias=True)
            (act): GELU(approximate=none)
            (drop1): Dropout(p=0.0, inplace=False)
            (norm): Identity()
            (fc2): Linear(in_features=1536, out_features=384, bias=True)
            (drop2): Dropout(p=0.0, inplace=False)
          )
        )
        (6): MultiScaleBlock(
          (norm1): LayerNorm((384,), eps=1e-06, elementwise_affine=True)
          (attn): MultiScaleAttention(
            (qkv): Linear(in_features=384, out_features=1152, bias=True)
            (proj): Linear(in_features=384, out_features=384, bias=True)
            (pool_q): Conv2d(64, 64, kernel_size=(3, 3), stride=(1, 1), padding=(1, 1), groups=64, bias=False)
            (norm_q): LayerNorm((64,), eps=1e-06, elementwise_affine=True)
            (pool_k): Conv2d(64, 64, kernel_size=(3, 3), stride=(2, 2), padding=(1, 1), groups=64, bias=False)
            (norm_k): LayerNorm((64,), eps=1e-06, elementwise_affine=True)
            (pool_v): Conv2d(64, 64, kernel_size=(3, 3), stride=(2, 2), padding=(1, 1), groups=64, bias=False)
            (norm_v): LayerNorm((64,), eps=1e-06, elementwise_affine=True)
          )
          (drop_path): DropPath(drop_prob=0.046)
          (norm2): LayerNorm((384,), eps=1e-06, elementwise_affine=True)
          (mlp): Mlp(
            (fc1): Linear(in_features=384, out_features=1536, bias=True)
            (act): GELU(approximate=none)
            (drop1): Dropout(p=0.0, inplace=False)
            (norm): Identity()
            (fc2): Linear(in_features=1536, out_features=384, bias=True)
            (drop2): Dropout(p=0.0, inplace=False)
          )
        )
        (7): MultiScaleBlock(
          (norm1): LayerNorm((384,), eps=1e-06, elementwise_affine=True)
          (attn): MultiScaleAttention(
            (qkv): Linear(in_features=384, out_features=1152, bias=True)
            (proj): Linear(in_features=384, out_features=384, bias=True)
            (pool_q): Conv2d(64, 64, kernel_size=(3, 3), stride=(1, 1), padding=(1, 1), groups=64, bias=False)
            (norm_q): LayerNorm((64,), eps=1e-06, elementwise_affine=True)
            (pool_k): Conv2d(64, 64, kernel_size=(3, 3), stride=(2, 2), padding=(1, 1), groups=64, bias=False)
            (norm_k): LayerNorm((64,), eps=1e-06, elementwise_affine=True)
            (pool_v): Conv2d(64, 64, kernel_size=(3, 3), stride=(2, 2), padding=(1, 1), groups=64, bias=False)
            (norm_v): LayerNorm((64,), eps=1e-06, elementwise_affine=True)
          )
          (drop_path): DropPath(drop_prob=0.053)
          (norm2): LayerNorm((384,), eps=1e-06, elementwise_affine=True)
          (mlp): Mlp(
            (fc1): Linear(in_features=384, out_features=1536, bias=True)
            (act): GELU(approximate=none)
            (drop1): Dropout(p=0.0, inplace=False)
            (norm): Identity()
            (fc2): Linear(in_features=1536, out_features=384, bias=True)
            (drop2): Dropout(p=0.0, inplace=False)
          )
        )
        (8): MultiScaleBlock(
          (norm1): LayerNorm((384,), eps=1e-06, elementwise_affine=True)
          (attn): MultiScaleAttention(
            (qkv): Linear(in_features=384, out_features=1152, bias=True)
            (proj): Linear(in_features=384, out_features=384, bias=True)
            (pool_q): Conv2d(64, 64, kernel_size=(3, 3), stride=(1, 1), padding=(1, 1), groups=64, bias=False)
            (norm_q): LayerNorm((64,), eps=1e-06, elementwise_affine=True)
            (pool_k): Conv2d(64, 64, kernel_size=(3, 3), stride=(2, 2), padding=(1, 1), groups=64, bias=False)
            (norm_k): LayerNorm((64,), eps=1e-06, elementwise_affine=True)
            (pool_v): Conv2d(64, 64, kernel_size=(3, 3), stride=(2, 2), padding=(1, 1), groups=64, bias=False)
            (norm_v): LayerNorm((64,), eps=1e-06, elementwise_affine=True)
          )
          (drop_path): DropPath(drop_prob=0.061)
          (norm2): LayerNorm((384,), eps=1e-06, elementwise_affine=True)
          (mlp): Mlp(
            (fc1): Linear(in_features=384, out_features=1536, bias=True)
            (act): GELU(approximate=none)
            (drop1): Dropout(p=0.0, inplace=False)
            (norm): Identity()
            (fc2): Linear(in_features=1536, out_features=384, bias=True)
            (drop2): Dropout(p=0.0, inplace=False)
          )
        )
        (9): MultiScaleBlock(
          (norm1): LayerNorm((384,), eps=1e-06, elementwise_affine=True)
          (attn): MultiScaleAttention(
            (qkv): Linear(in_features=384, out_features=1152, bias=True)
            (proj): Linear(in_features=384, out_features=384, bias=True)
            (pool_q): Conv2d(64, 64, kernel_size=(3, 3), stride=(1, 1), padding=(1, 1), groups=64, bias=False)
            (norm_q): LayerNorm((64,), eps=1e-06, elementwise_affine=True)
            (pool_k): Conv2d(64, 64, kernel_size=(3, 3), stride=(2, 2), padding=(1, 1), groups=64, bias=False)
            (norm_k): LayerNorm((64,), eps=1e-06, elementwise_affine=True)
            (pool_v): Conv2d(64, 64, kernel_size=(3, 3), stride=(2, 2), padding=(1, 1), groups=64, bias=False)
            (norm_v): LayerNorm((64,), eps=1e-06, elementwise_affine=True)
          )
          (drop_path): DropPath(drop_prob=0.068)
          (norm2): LayerNorm((384,), eps=1e-06, elementwise_affine=True)
          (mlp): Mlp(
            (fc1): Linear(in_features=384, out_features=1536, bias=True)
            (act): GELU(approximate=none)
            (drop1): Dropout(p=0.0, inplace=False)
            (norm): Identity()
            (fc2): Linear(in_features=1536, out_features=384, bias=True)
            (drop2): Dropout(p=0.0, inplace=False)
          )
        )
        (10): MultiScaleBlock(
          (norm1): LayerNorm((384,), eps=1e-06, elementwise_affine=True)
          (attn): MultiScaleAttention(
            (qkv): Linear(in_features=384, out_features=1152, bias=True)
            (proj): Linear(in_features=384, out_features=384, bias=True)
            (pool_q): Conv2d(64, 64, kernel_size=(3, 3), stride=(1, 1), padding=(1, 1), groups=64, bias=False)
            (norm_q): LayerNorm((64,), eps=1e-06, elementwise_affine=True)
            (pool_k): Conv2d(64, 64, kernel_size=(3, 3), stride=(2, 2), padding=(1, 1), groups=64, bias=False)
            (norm_k): LayerNorm((64,), eps=1e-06, elementwise_affine=True)
            (pool_v): Conv2d(64, 64, kernel_size=(3, 3), stride=(2, 2), padding=(1, 1), groups=64, bias=False)
            (norm_v): LayerNorm((64,), eps=1e-06, elementwise_affine=True)
          )
          (drop_path): DropPath(drop_prob=0.076)
          (norm2): LayerNorm((384,), eps=1e-06, elementwise_affine=True)
          (mlp): Mlp(
            (fc1): Linear(in_features=384, out_features=1536, bias=True)
            (act): GELU(approximate=none)
            (drop1): Dropout(p=0.0, inplace=False)
            (norm): Identity()
            (fc2): Linear(in_features=1536, out_features=384, bias=True)
            (drop2): Dropout(p=0.0, inplace=False)
          )
        )
        (11): MultiScaleBlock(
          (norm1): LayerNorm((384,), eps=1e-06, elementwise_affine=True)
          (attn): MultiScaleAttention(
            (qkv): Linear(in_features=384, out_features=1152, bias=True)
            (proj): Linear(in_features=384, out_features=384, bias=True)
            (pool_q): Conv2d(64, 64, kernel_size=(3, 3), stride=(1, 1), padding=(1, 1), groups=64, bias=False)
            (norm_q): LayerNorm((64,), eps=1e-06, elementwise_affine=True)
            (pool_k): Conv2d(64, 64, kernel_size=(3, 3), stride=(4, 4), padding=(1, 1), groups=64, bias=False)
            (norm_k): LayerNorm((64,), eps=1e-06, elementwise_affine=True)
            (pool_v): Conv2d(64, 64, kernel_size=(3, 3), stride=(4, 4), padding=(1, 1), groups=64, bias=False)
            (norm_v): LayerNorm((64,), eps=1e-06, elementwise_affine=True)
          )
          (drop_path): DropPath(drop_prob=0.084)
          (norm2): LayerNorm((384,), eps=1e-06, elementwise_affine=True)
          (mlp): Mlp(
            (fc1): Linear(in_features=384, out_features=1536, bias=True)
            (act): GELU(approximate=none)
            (drop1): Dropout(p=0.0, inplace=False)
            (norm): Identity()
            (fc2): Linear(in_features=1536, out_features=384, bias=True)
            (drop2): Dropout(p=0.0, inplace=False)
          )
        )
        (12): MultiScaleBlock(
          (norm1): LayerNorm((384,), eps=1e-06, elementwise_affine=True)
          (attn): MultiScaleAttention(
            (qkv): Linear(in_features=384, out_features=2304, bias=True)
            (proj): Linear(in_features=768, out_features=768, bias=True)
            (pool_q): Conv2d(64, 64, kernel_size=(3, 3), stride=(2, 2), padding=(1, 1), groups=64, bias=False)
            (norm_q): LayerNorm((64,), eps=1e-06, elementwise_affine=True)
            (pool_k): Conv2d(64, 64, kernel_size=(3, 3), stride=(1, 1), padding=(1, 1), groups=64, bias=False)
            (norm_k): LayerNorm((64,), eps=1e-06, elementwise_affine=True)
            (pool_v): Conv2d(64, 64, kernel_size=(3, 3), stride=(1, 1), padding=(1, 1), groups=64, bias=False)
            (norm_v): LayerNorm((64,), eps=1e-06, elementwise_affine=True)
          )
          (drop_path): DropPath(drop_prob=0.091)
          (norm2): LayerNorm((768,), eps=1e-06, elementwise_affine=True)
          (mlp): Mlp(
            (fc1): Linear(in_features=768, out_features=3072, bias=True)
            (act): GELU(approximate=none)
            (drop1): Dropout(p=0.0, inplace=False)
            (norm): Identity()
            (fc2): Linear(in_features=3072, out_features=768, bias=True)
            (drop2): Dropout(p=0.0, inplace=False)
          )
          (proj): Linear(in_features=384, out_features=768, bias=True)
          (pool_skip): MaxPool2d(kernel_size=3, stride=2, padding=1, dilation=1, ceil_mode=False)
        )
        (13): MultiScaleBlock(
          (norm1): LayerNorm((768,), eps=1e-06, elementwise_affine=True)
          (attn): MultiScaleAttention(
            (qkv): Linear(in_features=768, out_features=2304, bias=True)
            (proj): Linear(in_features=768, out_features=768, bias=True)
            (pool_q): Conv2d(64, 64, kernel_size=(3, 3), stride=(1, 1), padding=(1, 1), groups=64, bias=False)
            (norm_q): LayerNorm((64,), eps=1e-06, elementwise_affine=True)
            (pool_k): Conv2d(64, 64, kernel_size=(3, 3), stride=(1, 1), padding=(1, 1), groups=64, bias=False)
            (norm_k): LayerNorm((64,), eps=1e-06, elementwise_affine=True)
            (pool_v): Conv2d(64, 64, kernel_size=(3, 3), stride=(1, 1), padding=(1, 1), groups=64, bias=False)
            (norm_v): LayerNorm((64,), eps=1e-06, elementwise_affine=True)
          )
          (drop_path): DropPath(drop_prob=0.099)
          (norm2): LayerNorm((768,), eps=1e-06, elementwise_affine=True)
          (mlp): Mlp(
            (fc1): Linear(in_features=768, out_features=3072, bias=True)
            (act): GELU(approximate=none)
            (drop1): Dropout(p=0.0, inplace=False)
            (norm): Identity()
            (fc2): Linear(in_features=3072, out_features=768, bias=True)
            (drop2): Dropout(p=0.0, inplace=False)
          )
        )
        (14): MultiScaleBlock(
          (norm1): LayerNorm((768,), eps=1e-06, elementwise_affine=True)
          (attn): MultiScaleAttention(
            (qkv): Linear(in_features=768, out_features=2304, bias=True)
            (proj): Linear(in_features=768, out_features=768, bias=True)
            (pool_q): Conv2d(64, 64, kernel_size=(3, 3), stride=(1, 1), padding=(1, 1), groups=64, bias=False)
            (norm_q): LayerNorm((64,), eps=1e-06, elementwise_affine=True)
            (pool_k): Conv2d(64, 64, kernel_size=(3, 3), stride=(1, 1), padding=(1, 1), groups=64, bias=False)
            (norm_k): LayerNorm((64,), eps=1e-06, elementwise_affine=True)
            (pool_v): Conv2d(64, 64, kernel_size=(3, 3), stride=(1, 1), padding=(1, 1), groups=64, bias=False)
            (norm_v): LayerNorm((64,), eps=1e-06, elementwise_affine=True)
          )
          (drop_path): DropPath(drop_prob=0.106)
          (norm2): LayerNorm((768,), eps=1e-06, elementwise_affine=True)
          (mlp): Mlp(
            (fc1): Linear(in_features=768, out_features=3072, bias=True)
            (act): GELU(approximate=none)
            (drop1): Dropout(p=0.0, inplace=False)
            (norm): Identity()
            (fc2): Linear(in_features=3072, out_features=768, bias=True)
            (drop2): Dropout(p=0.0, inplace=False)
          )
        )
        (15): MultiScaleBlock(
          (norm1): LayerNorm((768,), eps=1e-06, elementwise_affine=True)
          (attn): MultiScaleAttention(
            (qkv): Linear(in_features=768, out_features=2304, bias=True)
            (proj): Linear(in_features=768, out_features=768, bias=True)
            (pool_q): Conv2d(64, 64, kernel_size=(3, 3), stride=(1, 1), padding=(1, 1), groups=64, bias=False)
            (norm_q): LayerNorm((64,), eps=1e-06, elementwise_affine=True)
            (pool_k): Conv2d(64, 64, kernel_size=(3, 3), stride=(1, 1), padding=(1, 1), groups=64, bias=False)
            (norm_k): LayerNorm((64,), eps=1e-06, elementwise_affine=True)
            (pool_v): Conv2d(64, 64, kernel_size=(3, 3), stride=(1, 1), padding=(1, 1), groups=64, bias=False)
            (norm_v): LayerNorm((64,), eps=1e-06, elementwise_affine=True)
          )
          (drop_path): DropPath(drop_prob=0.114)
          (norm2): LayerNorm((768,), eps=1e-06, elementwise_affine=True)
          (mlp): Mlp(
            (fc1): Linear(in_features=768, out_features=3072, bias=True)
            (act): GELU(approximate=none)
            (drop1): Dropout(p=0.0, inplace=False)
            (norm): Identity()
            (fc2): Linear(in_features=3072, out_features=768, bias=True)
            (drop2): Dropout(p=0.0, inplace=False)
          )
        )
        (16): MultiScaleBlock(
          (norm1): LayerNorm((768,), eps=1e-06, elementwise_affine=True)
          (attn): MultiScaleAttention(
            (qkv): Linear(in_features=768, out_features=2304, bias=True)
            (proj): Linear(in_features=768, out_features=768, bias=True)
            (pool_q): Conv2d(64, 64, kernel_size=(3, 3), stride=(1, 1), padding=(1, 1), groups=64, bias=False)
            (norm_q): LayerNorm((64,), eps=1e-06, elementwise_affine=True)
            (pool_k): Conv2d(64, 64, kernel_size=(3, 3), stride=(1, 1), padding=(1, 1), groups=64, bias=False)
            (norm_k): LayerNorm((64,), eps=1e-06, elementwise_affine=True)
            (pool_v): Conv2d(64, 64, kernel_size=(3, 3), stride=(1, 1), padding=(1, 1), groups=64, bias=False)
            (norm_v): LayerNorm((64,), eps=1e-06, elementwise_affine=True)
          )
          (drop_path): DropPath(drop_prob=0.122)
          (norm2): LayerNorm((768,), eps=1e-06, elementwise_affine=True)
          (mlp): Mlp(
            (fc1): Linear(in_features=768, out_features=3072, bias=True)
            (act): GELU(approximate=none)
            (drop1): Dropout(p=0.0, inplace=False)
            (norm): Identity()
            (fc2): Linear(in_features=3072, out_features=768, bias=True)
            (drop2): Dropout(p=0.0, inplace=False)
          )
        )
        (17): MultiScaleBlock(
          (norm1): LayerNorm((768,), eps=1e-06, elementwise_affine=True)
          (attn): MultiScaleAttention(
            (qkv): Linear(in_features=768, out_features=2304, bias=True)
            (proj): Linear(in_features=768, out_features=768, bias=True)
            (pool_q): Conv2d(64, 64, kernel_size=(3, 3), stride=(1, 1), padding=(1, 1), groups=64, bias=False)
            (norm_q): LayerNorm((64,), eps=1e-06, elementwise_affine=True)
            (pool_k): Conv2d(64, 64, kernel_size=(3, 3), stride=(1, 1), padding=(1, 1), groups=64, bias=False)
            (norm_k): LayerNorm((64,), eps=1e-06, elementwise_affine=True)
            (pool_v): Conv2d(64, 64, kernel_size=(3, 3), stride=(1, 1), padding=(1, 1), groups=64, bias=False)
            (norm_v): LayerNorm((64,), eps=1e-06, elementwise_affine=True)
          )
          (drop_path): DropPath(drop_prob=0.129)
          (norm2): LayerNorm((768,), eps=1e-06, elementwise_affine=True)
          (mlp): Mlp(
            (fc1): Linear(in_features=768, out_features=3072, bias=True)
            (act): GELU(approximate=none)
            (drop1): Dropout(p=0.0, inplace=False)
            (norm): Identity()
            (fc2): Linear(in_features=3072, out_features=768, bias=True)
            (drop2): Dropout(p=0.0, inplace=False)
          )
        )
        (18): MultiScaleBlock(
          (norm1): LayerNorm((768,), eps=1e-06, elementwise_affine=True)
          (attn): MultiScaleAttention(
            (qkv): Linear(in_features=768, out_features=2304, bias=True)
            (proj): Linear(in_features=768, out_features=768, bias=True)
            (pool_q): Conv2d(64, 64, kernel_size=(3, 3), stride=(1, 1), padding=(1, 1), groups=64, bias=False)
            (norm_q): LayerNorm((64,), eps=1e-06, elementwise_affine=True)
            (pool_k): Conv2d(64, 64, kernel_size=(3, 3), stride=(1, 1), padding=(1, 1), groups=64, bias=False)
            (norm_k): LayerNorm((64,), eps=1e-06, elementwise_affine=True)
            (pool_v): Conv2d(64, 64, kernel_size=(3, 3), stride=(1, 1), padding=(1, 1), groups=64, bias=False)
            (norm_v): LayerNorm((64,), eps=1e-06, elementwise_affine=True)
          )
          (drop_path): DropPath(drop_prob=0.137)
          (norm2): LayerNorm((768,), eps=1e-06, elementwise_affine=True)
          (mlp): Mlp(
            (fc1): Linear(in_features=768, out_features=3072, bias=True)
            (act): GELU(approximate=none)
            (drop1): Dropout(p=0.0, inplace=False)
            (norm): Identity()
            (fc2): Linear(in_features=3072, out_features=768, bias=True)
            (drop2): Dropout(p=0.0, inplace=False)
          )
        )
        (19): MultiScaleBlock(
          (norm1): LayerNorm((768,), eps=1e-06, elementwise_affine=True)
          (attn): MultiScaleAttention(
            (qkv): Linear(in_features=768, out_features=2304, bias=True)
            (proj): Linear(in_features=768, out_features=768, bias=True)
            (pool_q): Conv2d(64, 64, kernel_size=(3, 3), stride=(1, 1), padding=(1, 1), groups=64, bias=False)
            (norm_q): LayerNorm((64,), eps=1e-06, elementwise_affine=True)
            (pool_k): Conv2d(64, 64, kernel_size=(3, 3), stride=(1, 1), padding=(1, 1), groups=64, bias=False)
            (norm_k): LayerNorm((64,), eps=1e-06, elementwise_affine=True)
            (pool_v): Conv2d(64, 64, kernel_size=(3, 3), stride=(1, 1), padding=(1, 1), groups=64, bias=False)
            (norm_v): LayerNorm((64,), eps=1e-06, elementwise_affine=True)
          )
          (drop_path): DropPath(drop_prob=0.144)
          (norm2): LayerNorm((768,), eps=1e-06, elementwise_affine=True)
          (mlp): Mlp(
            (fc1): Linear(in_features=768, out_features=3072, bias=True)
            (act): GELU(approximate=none)
            (drop1): Dropout(p=0.0, inplace=False)
            (norm): Identity()
            (fc2): Linear(in_features=3072, out_features=768, bias=True)
            (drop2): Dropout(p=0.0, inplace=False)
          )
        )
        (20): MultiScaleBlock(
          (norm1): LayerNorm((768,), eps=1e-06, elementwise_affine=True)
          (attn): MultiScaleAttention(
            (qkv): Linear(in_features=768, out_features=2304, bias=True)
            (proj): Linear(in_features=768, out_features=768, bias=True)
            (pool_q): Conv2d(64, 64, kernel_size=(3, 3), stride=(1, 1), padding=(1, 1), groups=64, bias=False)
            (norm_q): LayerNorm((64,), eps=1e-06, elementwise_affine=True)
            (pool_k): Conv2d(64, 64, kernel_size=(3, 3), stride=(1, 1), padding=(1, 1), groups=64, bias=False)
            (norm_k): LayerNorm((64,), eps=1e-06, elementwise_affine=True)
            (pool_v): Conv2d(64, 64, kernel_size=(3, 3), stride=(1, 1), padding=(1, 1), groups=64, bias=False)
            (norm_v): LayerNorm((64,), eps=1e-06, elementwise_affine=True)
          )
          (drop_path): DropPath(drop_prob=0.152)
          (norm2): LayerNorm((768,), eps=1e-06, elementwise_affine=True)
          (mlp): Mlp(
            (fc1): Linear(in_features=768, out_features=3072, bias=True)
            (act): GELU(approximate=none)
            (drop1): Dropout(p=0.0, inplace=False)
            (norm): Identity()
            (fc2): Linear(in_features=3072, out_features=768, bias=True)
            (drop2): Dropout(p=0.0, inplace=False)
          )
        )
        (21): MultiScaleBlock(
          (norm1): LayerNorm((768,), eps=1e-06, elementwise_affine=True)
          (attn): MultiScaleAttention(
            (qkv): Linear(in_features=768, out_features=2304, bias=True)
            (proj): Linear(in_features=768, out_features=768, bias=True)
            (pool_q): Conv2d(64, 64, kernel_size=(3, 3), stride=(1, 1), padding=(1, 1), groups=64, bias=False)
            (norm_q): LayerNorm((64,), eps=1e-06, elementwise_affine=True)
            (pool_k): Conv2d(64, 64, kernel_size=(3, 3), stride=(1, 1), padding=(1, 1), groups=64, bias=False)
            (norm_k): LayerNorm((64,), eps=1e-06, elementwise_affine=True)
            (pool_v): Conv2d(64, 64, kernel_size=(3, 3), stride=(1, 1), padding=(1, 1), groups=64, bias=False)
            (norm_v): LayerNorm((64,), eps=1e-06, elementwise_affine=True)
          )
          (drop_path): DropPath(drop_prob=0.159)
          (norm2): LayerNorm((768,), eps=1e-06, elementwise_affine=True)
          (mlp): Mlp(
            (fc1): Linear(in_features=768, out_features=3072, bias=True)
            (act): GELU(approximate=none)
            (drop1): Dropout(p=0.0, inplace=False)
            (norm): Identity()
            (fc2): Linear(in_features=3072, out_features=768, bias=True)
            (drop2): Dropout(p=0.0, inplace=False)
          )
        )
        (22): MultiScaleBlock(
          (norm1): LayerNorm((768,), eps=1e-06, elementwise_affine=True)
          (attn): MultiScaleAttention(
            (qkv): Linear(in_features=768, out_features=2304, bias=True)
            (proj): Linear(in_features=768, out_features=768, bias=True)
            (pool_q): Conv2d(64, 64, kernel_size=(3, 3), stride=(1, 1), padding=(1, 1), groups=64, bias=False)
            (norm_q): LayerNorm((64,), eps=1e-06, elementwise_affine=True)
            (pool_k): Conv2d(64, 64, kernel_size=(3, 3), stride=(1, 1), padding=(1, 1), groups=64, bias=False)
            (norm_k): LayerNorm((64,), eps=1e-06, elementwise_affine=True)
            (pool_v): Conv2d(64, 64, kernel_size=(3, 3), stride=(1, 1), padding=(1, 1), groups=64, bias=False)
            (norm_v): LayerNorm((64,), eps=1e-06, elementwise_affine=True)
          )
          (drop_path): DropPath(drop_prob=0.167)
          (norm2): LayerNorm((768,), eps=1e-06, elementwise_affine=True)
          (mlp): Mlp(
            (fc1): Linear(in_features=768, out_features=3072, bias=True)
            (act): GELU(approximate=none)
            (drop1): Dropout(p=0.0, inplace=False)
            (norm): Identity()
            (fc2): Linear(in_features=3072, out_features=768, bias=True)
            (drop2): Dropout(p=0.0, inplace=False)
          )
        )
        (23): MultiScaleBlock(
          (norm1): LayerNorm((768,), eps=1e-06, elementwise_affine=True)
          (attn): MultiScaleAttention(
            (qkv): Linear(in_features=768, out_features=2304, bias=True)
            (proj): Linear(in_features=768, out_features=768, bias=True)
            (pool_q): Conv2d(64, 64, kernel_size=(3, 3), stride=(1, 1), padding=(1, 1), groups=64, bias=False)
            (norm_q): LayerNorm((64,), eps=1e-06, elementwise_affine=True)
            (pool_k): Conv2d(64, 64, kernel_size=(3, 3), stride=(1, 1), padding=(1, 1), groups=64, bias=False)
            (norm_k): LayerNorm((64,), eps=1e-06, elementwise_affine=True)
            (pool_v): Conv2d(64, 64, kernel_size=(3, 3), stride=(1, 1), padding=(1, 1), groups=64, bias=False)
            (norm_v): LayerNorm((64,), eps=1e-06, elementwise_affine=True)
          )
          (drop_path): DropPath(drop_prob=0.175)
          (norm2): LayerNorm((768,), eps=1e-06, elementwise_affine=True)
          (mlp): Mlp(
            (fc1): Linear(in_features=768, out_features=3072, bias=True)
            (act): GELU(approximate=none)
            (drop1): Dropout(p=0.0, inplace=False)
            (norm): Identity()
            (fc2): Linear(in_features=3072, out_features=768, bias=True)
            (drop2): Dropout(p=0.0, inplace=False)
          )
        )
        (24): MultiScaleBlock(
          (norm1): LayerNorm((768,), eps=1e-06, elementwise_affine=True)
          (attn): MultiScaleAttention(
            (qkv): Linear(in_features=768, out_features=2304, bias=True)
            (proj): Linear(in_features=768, out_features=768, bias=True)
            (pool_q): Conv2d(64, 64, kernel_size=(3, 3), stride=(1, 1), padding=(1, 1), groups=64, bias=False)
            (norm_q): LayerNorm((64,), eps=1e-06, elementwise_affine=True)
            (pool_k): Conv2d(64, 64, kernel_size=(3, 3), stride=(1, 1), padding=(1, 1), groups=64, bias=False)
            (norm_k): LayerNorm((64,), eps=1e-06, elementwise_affine=True)
            (pool_v): Conv2d(64, 64, kernel_size=(3, 3), stride=(1, 1), padding=(1, 1), groups=64, bias=False)
            (norm_v): LayerNorm((64,), eps=1e-06, elementwise_affine=True)
          )
          (drop_path): DropPath(drop_prob=0.182)
          (norm2): LayerNorm((768,), eps=1e-06, elementwise_affine=True)
          (mlp): Mlp(
            (fc1): Linear(in_features=768, out_features=3072, bias=True)
            (act): GELU(approximate=none)
            (drop1): Dropout(p=0.0, inplace=False)
            (norm): Identity()
            (fc2): Linear(in_features=3072, out_features=768, bias=True)
            (drop2): Dropout(p=0.0, inplace=False)
          )
        )
        (25): MultiScaleBlock(
          (norm1): LayerNorm((768,), eps=1e-06, elementwise_affine=True)
          (attn): MultiScaleAttention(
            (qkv): Linear(in_features=768, out_features=2304, bias=True)
            (proj): Linear(in_features=768, out_features=768, bias=True)
            (pool_q): Conv2d(64, 64, kernel_size=(3, 3), stride=(1, 1), padding=(1, 1), groups=64, bias=False)
            (norm_q): LayerNorm((64,), eps=1e-06, elementwise_affine=True)
            (pool_k): Conv2d(64, 64, kernel_size=(3, 3), stride=(1, 1), padding=(1, 1), groups=64, bias=False)
            (norm_k): LayerNorm((64,), eps=1e-06, elementwise_affine=True)
            (pool_v): Conv2d(64, 64, kernel_size=(3, 3), stride=(1, 1), padding=(1, 1), groups=64, bias=False)
            (norm_v): LayerNorm((64,), eps=1e-06, elementwise_affine=True)
          )
          (drop_path): DropPath(drop_prob=0.190)
          (norm2): LayerNorm((768,), eps=1e-06, elementwise_affine=True)
          (mlp): Mlp(
            (fc1): Linear(in_features=768, out_features=3072, bias=True)
            (act): GELU(approximate=none)
            (drop1): Dropout(p=0.0, inplace=False)
            (norm): Identity()
            (fc2): Linear(in_features=3072, out_features=768, bias=True)
            (drop2): Dropout(p=0.0, inplace=False)
          )
        )
        (26): MultiScaleBlock(
          (norm1): LayerNorm((768,), eps=1e-06, elementwise_affine=True)
          (attn): MultiScaleAttention(
            (qkv): Linear(in_features=768, out_features=2304, bias=True)
            (proj): Linear(in_features=768, out_features=768, bias=True)
            (pool_q): Conv2d(64, 64, kernel_size=(3, 3), stride=(1, 1), padding=(1, 1), groups=64, bias=False)
            (norm_q): LayerNorm((64,), eps=1e-06, elementwise_affine=True)
            (pool_k): Conv2d(64, 64, kernel_size=(3, 3), stride=(1, 1), padding=(1, 1), groups=64, bias=False)
            (norm_k): LayerNorm((64,), eps=1e-06, elementwise_affine=True)
            (pool_v): Conv2d(64, 64, kernel_size=(3, 3), stride=(1, 1), padding=(1, 1), groups=64, bias=False)
            (norm_v): LayerNorm((64,), eps=1e-06, elementwise_affine=True)
          )
          (drop_path): DropPath(drop_prob=0.197)
          (norm2): LayerNorm((768,), eps=1e-06, elementwise_affine=True)
          (mlp): Mlp(
            (fc1): Linear(in_features=768, out_features=3072, bias=True)
            (act): GELU(approximate=none)
            (drop1): Dropout(p=0.0, inplace=False)
            (norm): Identity()
            (fc2): Linear(in_features=3072, out_features=768, bias=True)
            (drop2): Dropout(p=0.0, inplace=False)
          )
        )
        (27): MultiScaleBlock(
          (norm1): LayerNorm((768,), eps=1e-06, elementwise_affine=True)
          (attn): MultiScaleAttention(
            (qkv): Linear(in_features=768, out_features=2304, bias=True)
            (proj): Linear(in_features=768, out_features=768, bias=True)
            (pool_q): Conv2d(64, 64, kernel_size=(3, 3), stride=(1, 1), padding=(1, 1), groups=64, bias=False)
            (norm_q): LayerNorm((64,), eps=1e-06, elementwise_affine=True)
            (pool_k): Conv2d(64, 64, kernel_size=(3, 3), stride=(1, 1), padding=(1, 1), groups=64, bias=False)
            (norm_k): LayerNorm((64,), eps=1e-06, elementwise_affine=True)
            (pool_v): Conv2d(64, 64, kernel_size=(3, 3), stride=(1, 1), padding=(1, 1), groups=64, bias=False)
            (norm_v): LayerNorm((64,), eps=1e-06, elementwise_affine=True)
          )
          (drop_path): DropPath(drop_prob=0.205)
          (norm2): LayerNorm((768,), eps=1e-06, elementwise_affine=True)
          (mlp): Mlp(
            (fc1): Linear(in_features=768, out_features=3072, bias=True)
            (act): GELU(approximate=none)
            (drop1): Dropout(p=0.0, inplace=False)
            (norm): Identity()
            (fc2): Linear(in_features=3072, out_features=768, bias=True)
            (drop2): Dropout(p=0.0, inplace=False)
          )
        )
        (28): MultiScaleBlock(
          (norm1): LayerNorm((768,), eps=1e-06, elementwise_affine=True)
          (attn): MultiScaleAttention(
            (qkv): Linear(in_features=768, out_features=2304, bias=True)
            (proj): Linear(in_features=768, out_features=768, bias=True)
            (pool_q): Conv2d(64, 64, kernel_size=(3, 3), stride=(1, 1), padding=(1, 1), groups=64, bias=False)
            (norm_q): LayerNorm((64,), eps=1e-06, elementwise_affine=True)
            (pool_k): Conv2d(64, 64, kernel_size=(3, 3), stride=(1, 1), padding=(1, 1), groups=64, bias=False)
            (norm_k): LayerNorm((64,), eps=1e-06, elementwise_affine=True)
            (pool_v): Conv2d(64, 64, kernel_size=(3, 3), stride=(1, 1), padding=(1, 1), groups=64, bias=False)
            (norm_v): LayerNorm((64,), eps=1e-06, elementwise_affine=True)
          )
          (drop_path): DropPath(drop_prob=0.213)
          (norm2): LayerNorm((768,), eps=1e-06, elementwise_affine=True)
          (mlp): Mlp(
            (fc1): Linear(in_features=768, out_features=3072, bias=True)
            (act): GELU(approximate=none)
            (drop1): Dropout(p=0.0, inplace=False)
            (norm): Identity()
            (fc2): Linear(in_features=3072, out_features=768, bias=True)
            (drop2): Dropout(p=0.0, inplace=False)
          )
        )
        (29): MultiScaleBlock(
          (norm1): LayerNorm((768,), eps=1e-06, elementwise_affine=True)
          (attn): MultiScaleAttention(
            (qkv): Linear(in_features=768, out_features=2304, bias=True)
            (proj): Linear(in_features=768, out_features=768, bias=True)
            (pool_q): Conv2d(64, 64, kernel_size=(3, 3), stride=(1, 1), padding=(1, 1), groups=64, bias=False)
            (norm_q): LayerNorm((64,), eps=1e-06, elementwise_affine=True)
            (pool_k): Conv2d(64, 64, kernel_size=(3, 3), stride=(1, 1), padding=(1, 1), groups=64, bias=False)
            (norm_k): LayerNorm((64,), eps=1e-06, elementwise_affine=True)
            (pool_v): Conv2d(64, 64, kernel_size=(3, 3), stride=(1, 1), padding=(1, 1), groups=64, bias=False)
            (norm_v): LayerNorm((64,), eps=1e-06, elementwise_affine=True)
          )
          (drop_path): DropPath(drop_prob=0.220)
          (norm2): LayerNorm((768,), eps=1e-06, elementwise_affine=True)
          (mlp): Mlp(
            (fc1): Linear(in_features=768, out_features=3072, bias=True)
            (act): GELU(approximate=none)
            (drop1): Dropout(p=0.0, inplace=False)
            (norm): Identity()
            (fc2): Linear(in_features=3072, out_features=768, bias=True)
            (drop2): Dropout(p=0.0, inplace=False)
          )
        )
        (30): MultiScaleBlock(
          (norm1): LayerNorm((768,), eps=1e-06, elementwise_affine=True)
          (attn): MultiScaleAttention(
            (qkv): Linear(in_features=768, out_features=2304, bias=True)
            (proj): Linear(in_features=768, out_features=768, bias=True)
            (pool_q): Conv2d(64, 64, kernel_size=(3, 3), stride=(1, 1), padding=(1, 1), groups=64, bias=False)
            (norm_q): LayerNorm((64,), eps=1e-06, elementwise_affine=True)
            (pool_k): Conv2d(64, 64, kernel_size=(3, 3), stride=(1, 1), padding=(1, 1), groups=64, bias=False)
            (norm_k): LayerNorm((64,), eps=1e-06, elementwise_affine=True)
            (pool_v): Conv2d(64, 64, kernel_size=(3, 3), stride=(1, 1), padding=(1, 1), groups=64, bias=False)
            (norm_v): LayerNorm((64,), eps=1e-06, elementwise_affine=True)
          )
          (drop_path): DropPath(drop_prob=0.228)
          (norm2): LayerNorm((768,), eps=1e-06, elementwise_affine=True)
          (mlp): Mlp(
            (fc1): Linear(in_features=768, out_features=3072, bias=True)
            (act): GELU(approximate=none)
            (drop1): Dropout(p=0.0, inplace=False)
            (norm): Identity()
            (fc2): Linear(in_features=3072, out_features=768, bias=True)
            (drop2): Dropout(p=0.0, inplace=False)
          )
        )
        (31): MultiScaleBlock(
          (norm1): LayerNorm((768,), eps=1e-06, elementwise_affine=True)
          (attn): MultiScaleAttention(
            (qkv): Linear(in_features=768, out_features=2304, bias=True)
            (proj): Linear(in_features=768, out_features=768, bias=True)
            (pool_q): Conv2d(64, 64, kernel_size=(3, 3), stride=(1, 1), padding=(1, 1), groups=64, bias=False)
            (norm_q): LayerNorm((64,), eps=1e-06, elementwise_affine=True)
            (pool_k): Conv2d(64, 64, kernel_size=(3, 3), stride=(1, 1), padding=(1, 1), groups=64, bias=False)
            (norm_k): LayerNorm((64,), eps=1e-06, elementwise_affine=True)
            (pool_v): Conv2d(64, 64, kernel_size=(3, 3), stride=(1, 1), padding=(1, 1), groups=64, bias=False)
            (norm_v): LayerNorm((64,), eps=1e-06, elementwise_affine=True)
          )
          (drop_path): DropPath(drop_prob=0.235)
          (norm2): LayerNorm((768,), eps=1e-06, elementwise_affine=True)
          (mlp): Mlp(
            (fc1): Linear(in_features=768, out_features=3072, bias=True)
            (act): GELU(approximate=none)
            (drop1): Dropout(p=0.0, inplace=False)
            (norm): Identity()
            (fc2): Linear(in_features=3072, out_features=768, bias=True)
            (drop2): Dropout(p=0.0, inplace=False)
          )
        )
        (32): MultiScaleBlock(
          (norm1): LayerNorm((768,), eps=1e-06, elementwise_affine=True)
          (attn): MultiScaleAttention(
            (qkv): Linear(in_features=768, out_features=2304, bias=True)
            (proj): Linear(in_features=768, out_features=768, bias=True)
            (pool_q): Conv2d(64, 64, kernel_size=(3, 3), stride=(1, 1), padding=(1, 1), groups=64, bias=False)
            (norm_q): LayerNorm((64,), eps=1e-06, elementwise_affine=True)
            (pool_k): Conv2d(64, 64, kernel_size=(3, 3), stride=(1, 1), padding=(1, 1), groups=64, bias=False)
            (norm_k): LayerNorm((64,), eps=1e-06, elementwise_affine=True)
            (pool_v): Conv2d(64, 64, kernel_size=(3, 3), stride=(1, 1), padding=(1, 1), groups=64, bias=False)
            (norm_v): LayerNorm((64,), eps=1e-06, elementwise_affine=True)
          )
          (drop_path): DropPath(drop_prob=0.243)
          (norm2): LayerNorm((768,), eps=1e-06, elementwise_affine=True)
          (mlp): Mlp(
            (fc1): Linear(in_features=768, out_features=3072, bias=True)
            (act): GELU(approximate=none)
            (drop1): Dropout(p=0.0, inplace=False)
            (norm): Identity()
            (fc2): Linear(in_features=3072, out_features=768, bias=True)
            (drop2): Dropout(p=0.0, inplace=False)
          )
        )
        (33): MultiScaleBlock(
          (norm1): LayerNorm((768,), eps=1e-06, elementwise_affine=True)
          (attn): MultiScaleAttention(
            (qkv): Linear(in_features=768, out_features=2304, bias=True)
            (proj): Linear(in_features=768, out_features=768, bias=True)
            (pool_q): Conv2d(64, 64, kernel_size=(3, 3), stride=(1, 1), padding=(1, 1), groups=64, bias=False)
            (norm_q): LayerNorm((64,), eps=1e-06, elementwise_affine=True)
            (pool_k): Conv2d(64, 64, kernel_size=(3, 3), stride=(1, 1), padding=(1, 1), groups=64, bias=False)
            (norm_k): LayerNorm((64,), eps=1e-06, elementwise_affine=True)
            (pool_v): Conv2d(64, 64, kernel_size=(3, 3), stride=(1, 1), padding=(1, 1), groups=64, bias=False)
            (norm_v): LayerNorm((64,), eps=1e-06, elementwise_affine=True)
          )
          (drop_path): DropPath(drop_prob=0.251)
          (norm2): LayerNorm((768,), eps=1e-06, elementwise_affine=True)
          (mlp): Mlp(
            (fc1): Linear(in_features=768, out_features=3072, bias=True)
            (act): GELU(approximate=none)
            (drop1): Dropout(p=0.0, inplace=False)
            (norm): Identity()
            (fc2): Linear(in_features=3072, out_features=768, bias=True)
            (drop2): Dropout(p=0.0, inplace=False)
          )
        )
        (34): MultiScaleBlock(
          (norm1): LayerNorm((768,), eps=1e-06, elementwise_affine=True)
          (attn): MultiScaleAttention(
            (qkv): Linear(in_features=768, out_features=2304, bias=True)
            (proj): Linear(in_features=768, out_features=768, bias=True)
            (pool_q): Conv2d(64, 64, kernel_size=(3, 3), stride=(1, 1), padding=(1, 1), groups=64, bias=False)
            (norm_q): LayerNorm((64,), eps=1e-06, elementwise_affine=True)
            (pool_k): Conv2d(64, 64, kernel_size=(3, 3), stride=(1, 1), padding=(1, 1), groups=64, bias=False)
            (norm_k): LayerNorm((64,), eps=1e-06, elementwise_affine=True)
            (pool_v): Conv2d(64, 64, kernel_size=(3, 3), stride=(1, 1), padding=(1, 1), groups=64, bias=False)
            (norm_v): LayerNorm((64,), eps=1e-06, elementwise_affine=True)
          )
          (drop_path): DropPath(drop_prob=0.258)
          (norm2): LayerNorm((768,), eps=1e-06, elementwise_affine=True)
          (mlp): Mlp(
            (fc1): Linear(in_features=768, out_features=3072, bias=True)
            (act): GELU(approximate=none)
            (drop1): Dropout(p=0.0, inplace=False)
            (norm): Identity()
            (fc2): Linear(in_features=3072, out_features=768, bias=True)
            (drop2): Dropout(p=0.0, inplace=False)
          )
        )
        (35): MultiScaleBlock(
          (norm1): LayerNorm((768,), eps=1e-06, elementwise_affine=True)
          (attn): MultiScaleAttention(
            (qkv): Linear(in_features=768, out_features=2304, bias=True)
            (proj): Linear(in_features=768, out_features=768, bias=True)
            (pool_q): Conv2d(64, 64, kernel_size=(3, 3), stride=(1, 1), padding=(1, 1), groups=64, bias=False)
            (norm_q): LayerNorm((64,), eps=1e-06, elementwise_affine=True)
            (pool_k): Conv2d(64, 64, kernel_size=(3, 3), stride=(1, 1), padding=(1, 1), groups=64, bias=False)
            (norm_k): LayerNorm((64,), eps=1e-06, elementwise_affine=True)
            (pool_v): Conv2d(64, 64, kernel_size=(3, 3), stride=(1, 1), padding=(1, 1), groups=64, bias=False)
            (norm_v): LayerNorm((64,), eps=1e-06, elementwise_affine=True)
          )
          (drop_path): DropPath(drop_prob=0.266)
          (norm2): LayerNorm((768,), eps=1e-06, elementwise_affine=True)
          (mlp): Mlp(
            (fc1): Linear(in_features=768, out_features=3072, bias=True)
            (act): GELU(approximate=none)
            (drop1): Dropout(p=0.0, inplace=False)
            (norm): Identity()
            (fc2): Linear(in_features=3072, out_features=768, bias=True)
            (drop2): Dropout(p=0.0, inplace=False)
          )
        )
        (36): MultiScaleBlock(
          (norm1): LayerNorm((768,), eps=1e-06, elementwise_affine=True)
          (attn): MultiScaleAttention(
            (qkv): Linear(in_features=768, out_features=2304, bias=True)
            (proj): Linear(in_features=768, out_features=768, bias=True)
            (pool_q): Conv2d(64, 64, kernel_size=(3, 3), stride=(1, 1), padding=(1, 1), groups=64, bias=False)
            (norm_q): LayerNorm((64,), eps=1e-06, elementwise_affine=True)
            (pool_k): Conv2d(64, 64, kernel_size=(3, 3), stride=(1, 1), padding=(1, 1), groups=64, bias=False)
            (norm_k): LayerNorm((64,), eps=1e-06, elementwise_affine=True)
            (pool_v): Conv2d(64, 64, kernel_size=(3, 3), stride=(1, 1), padding=(1, 1), groups=64, bias=False)
            (norm_v): LayerNorm((64,), eps=1e-06, elementwise_affine=True)
          )
          (drop_path): DropPath(drop_prob=0.273)
          (norm2): LayerNorm((768,), eps=1e-06, elementwise_affine=True)
          (mlp): Mlp(
            (fc1): Linear(in_features=768, out_features=3072, bias=True)
            (act): GELU(approximate=none)
            (drop1): Dropout(p=0.0, inplace=False)
            (norm): Identity()
            (fc2): Linear(in_features=3072, out_features=768, bias=True)
            (drop2): Dropout(p=0.0, inplace=False)
          )
        )
        (37): MultiScaleBlock(
          (norm1): LayerNorm((768,), eps=1e-06, elementwise_affine=True)
          (attn): MultiScaleAttention(
            (qkv): Linear(in_features=768, out_features=2304, bias=True)
            (proj): Linear(in_features=768, out_features=768, bias=True)
            (pool_q): Conv2d(64, 64, kernel_size=(3, 3), stride=(1, 1), padding=(1, 1), groups=64, bias=False)
            (norm_q): LayerNorm((64,), eps=1e-06, elementwise_affine=True)
            (pool_k): Conv2d(64, 64, kernel_size=(3, 3), stride=(1, 1), padding=(1, 1), groups=64, bias=False)
            (norm_k): LayerNorm((64,), eps=1e-06, elementwise_affine=True)
            (pool_v): Conv2d(64, 64, kernel_size=(3, 3), stride=(1, 1), padding=(1, 1), groups=64, bias=False)
            (norm_v): LayerNorm((64,), eps=1e-06, elementwise_affine=True)
          )
          (drop_path): DropPath(drop_prob=0.281)
          (norm2): LayerNorm((768,), eps=1e-06, elementwise_affine=True)
          (mlp): Mlp(
            (fc1): Linear(in_features=768, out_features=3072, bias=True)
            (act): GELU(approximate=none)
            (drop1): Dropout(p=0.0, inplace=False)
            (norm): Identity()
            (fc2): Linear(in_features=3072, out_features=768, bias=True)
            (drop2): Dropout(p=0.0, inplace=False)
          )
        )
        (38): MultiScaleBlock(
          (norm1): LayerNorm((768,), eps=1e-06, elementwise_affine=True)
          (attn): MultiScaleAttention(
            (qkv): Linear(in_features=768, out_features=2304, bias=True)
            (proj): Linear(in_features=768, out_features=768, bias=True)
            (pool_q): Conv2d(64, 64, kernel_size=(3, 3), stride=(1, 1), padding=(1, 1), groups=64, bias=False)
            (norm_q): LayerNorm((64,), eps=1e-06, elementwise_affine=True)
            (pool_k): Conv2d(64, 64, kernel_size=(3, 3), stride=(1, 1), padding=(1, 1), groups=64, bias=False)
            (norm_k): LayerNorm((64,), eps=1e-06, elementwise_affine=True)
            (pool_v): Conv2d(64, 64, kernel_size=(3, 3), stride=(1, 1), padding=(1, 1), groups=64, bias=False)
            (norm_v): LayerNorm((64,), eps=1e-06, elementwise_affine=True)
          )
          (drop_path): DropPath(drop_prob=0.289)
          (norm2): LayerNorm((768,), eps=1e-06, elementwise_affine=True)
          (mlp): Mlp(
            (fc1): Linear(in_features=768, out_features=3072, bias=True)
            (act): GELU(approximate=none)
            (drop1): Dropout(p=0.0, inplace=False)
            (norm): Identity()
            (fc2): Linear(in_features=3072, out_features=768, bias=True)
            (drop2): Dropout(p=0.0, inplace=False)
          )
        )
        (39): MultiScaleBlock(
          (norm1): LayerNorm((768,), eps=1e-06, elementwise_affine=True)
          (attn): MultiScaleAttention(
            (qkv): Linear(in_features=768, out_features=2304, bias=True)
            (proj): Linear(in_features=768, out_features=768, bias=True)
            (pool_q): Conv2d(64, 64, kernel_size=(3, 3), stride=(1, 1), padding=(1, 1), groups=64, bias=False)
            (norm_q): LayerNorm((64,), eps=1e-06, elementwise_affine=True)
            (pool_k): Conv2d(64, 64, kernel_size=(3, 3), stride=(1, 1), padding=(1, 1), groups=64, bias=False)
            (norm_k): LayerNorm((64,), eps=1e-06, elementwise_affine=True)
            (pool_v): Conv2d(64, 64, kernel_size=(3, 3), stride=(1, 1), padding=(1, 1), groups=64, bias=False)
            (norm_v): LayerNorm((64,), eps=1e-06, elementwise_affine=True)
          )
          (drop_path): DropPath(drop_prob=0.296)
          (norm2): LayerNorm((768,), eps=1e-06, elementwise_affine=True)
          (mlp): Mlp(
            (fc1): Linear(in_features=768, out_features=3072, bias=True)
            (act): GELU(approximate=none)
            (drop1): Dropout(p=0.0, inplace=False)
            (norm): Identity()
            (fc2): Linear(in_features=3072, out_features=768, bias=True)
            (drop2): Dropout(p=0.0, inplace=False)
          )
        )
        (40): MultiScaleBlock(
          (norm1): LayerNorm((768,), eps=1e-06, elementwise_affine=True)
          (attn): MultiScaleAttention(
            (qkv): Linear(in_features=768, out_features=2304, bias=True)
            (proj): Linear(in_features=768, out_features=768, bias=True)
            (pool_q): Conv2d(64, 64, kernel_size=(3, 3), stride=(1, 1), padding=(1, 1), groups=64, bias=False)
            (norm_q): LayerNorm((64,), eps=1e-06, elementwise_affine=True)
            (pool_k): Conv2d(64, 64, kernel_size=(3, 3), stride=(1, 1), padding=(1, 1), groups=64, bias=False)
            (norm_k): LayerNorm((64,), eps=1e-06, elementwise_affine=True)
            (pool_v): Conv2d(64, 64, kernel_size=(3, 3), stride=(1, 1), padding=(1, 1), groups=64, bias=False)
            (norm_v): LayerNorm((64,), eps=1e-06, elementwise_affine=True)
          )
          (drop_path): DropPath(drop_prob=0.304)
          (norm2): LayerNorm((768,), eps=1e-06, elementwise_affine=True)
          (mlp): Mlp(
            (fc1): Linear(in_features=768, out_features=3072, bias=True)
            (act): GELU(approximate=none)
            (drop1): Dropout(p=0.0, inplace=False)
            (norm): Identity()
            (fc2): Linear(in_features=3072, out_features=768, bias=True)
            (drop2): Dropout(p=0.0, inplace=False)
          )
        )
        (41): MultiScaleBlock(
          (norm1): LayerNorm((768,), eps=1e-06, elementwise_affine=True)
          (attn): MultiScaleAttention(
            (qkv): Linear(in_features=768, out_features=2304, bias=True)
            (proj): Linear(in_features=768, out_features=768, bias=True)
            (pool_q): Conv2d(64, 64, kernel_size=(3, 3), stride=(1, 1), padding=(1, 1), groups=64, bias=False)
            (norm_q): LayerNorm((64,), eps=1e-06, elementwise_affine=True)
            (pool_k): Conv2d(64, 64, kernel_size=(3, 3), stride=(1, 1), padding=(1, 1), groups=64, bias=False)
            (norm_k): LayerNorm((64,), eps=1e-06, elementwise_affine=True)
            (pool_v): Conv2d(64, 64, kernel_size=(3, 3), stride=(1, 1), padding=(1, 1), groups=64, bias=False)
            (norm_v): LayerNorm((64,), eps=1e-06, elementwise_affine=True)
          )
          (drop_path): DropPath(drop_prob=0.311)
          (norm2): LayerNorm((768,), eps=1e-06, elementwise_affine=True)
          (mlp): Mlp(
            (fc1): Linear(in_features=768, out_features=3072, bias=True)
            (act): GELU(approximate=none)
            (drop1): Dropout(p=0.0, inplace=False)
            (norm): Identity()
            (fc2): Linear(in_features=3072, out_features=768, bias=True)
            (drop2): Dropout(p=0.0, inplace=False)
          )
        )
        (42): MultiScaleBlock(
          (norm1): LayerNorm((768,), eps=1e-06, elementwise_affine=True)
          (attn): MultiScaleAttention(
            (qkv): Linear(in_features=768, out_features=2304, bias=True)
            (proj): Linear(in_features=768, out_features=768, bias=True)
            (pool_q): Conv2d(64, 64, kernel_size=(3, 3), stride=(1, 1), padding=(1, 1), groups=64, bias=False)
            (norm_q): LayerNorm((64,), eps=1e-06, elementwise_affine=True)
            (pool_k): Conv2d(64, 64, kernel_size=(3, 3), stride=(1, 1), padding=(1, 1), groups=64, bias=False)
            (norm_k): LayerNorm((64,), eps=1e-06, elementwise_affine=True)
            (pool_v): Conv2d(64, 64, kernel_size=(3, 3), stride=(1, 1), padding=(1, 1), groups=64, bias=False)
            (norm_v): LayerNorm((64,), eps=1e-06, elementwise_affine=True)
          )
          (drop_path): DropPath(drop_prob=0.319)
          (norm2): LayerNorm((768,), eps=1e-06, elementwise_affine=True)
          (mlp): Mlp(
            (fc1): Linear(in_features=768, out_features=3072, bias=True)
            (act): GELU(approximate=none)
            (drop1): Dropout(p=0.0, inplace=False)
            (norm): Identity()
            (fc2): Linear(in_features=3072, out_features=768, bias=True)
            (drop2): Dropout(p=0.0, inplace=False)
          )
        )
        (43): MultiScaleBlock(
          (norm1): LayerNorm((768,), eps=1e-06, elementwise_affine=True)
          (attn): MultiScaleAttention(
            (qkv): Linear(in_features=768, out_features=2304, bias=True)
            (proj): Linear(in_features=768, out_features=768, bias=True)
            (pool_q): Conv2d(64, 64, kernel_size=(3, 3), stride=(1, 1), padding=(1, 1), groups=64, bias=False)
            (norm_q): LayerNorm((64,), eps=1e-06, elementwise_affine=True)
            (pool_k): Conv2d(64, 64, kernel_size=(3, 3), stride=(1, 1), padding=(1, 1), groups=64, bias=False)
            (norm_k): LayerNorm((64,), eps=1e-06, elementwise_affine=True)
            (pool_v): Conv2d(64, 64, kernel_size=(3, 3), stride=(1, 1), padding=(1, 1), groups=64, bias=False)
            (norm_v): LayerNorm((64,), eps=1e-06, elementwise_affine=True)
          )
          (drop_path): DropPath(drop_prob=0.327)
          (norm2): LayerNorm((768,), eps=1e-06, elementwise_affine=True)
          (mlp): Mlp(
            (fc1): Linear(in_features=768, out_features=3072, bias=True)
            (act): GELU(approximate=none)
            (drop1): Dropout(p=0.0, inplace=False)
            (norm): Identity()
            (fc2): Linear(in_features=3072, out_features=768, bias=True)
            (drop2): Dropout(p=0.0, inplace=False)
          )
        )
        (44): MultiScaleBlock(
          (norm1): LayerNorm((768,), eps=1e-06, elementwise_affine=True)
          (attn): MultiScaleAttention(
            (qkv): Linear(in_features=768, out_features=2304, bias=True)
            (proj): Linear(in_features=768, out_features=768, bias=True)
            (pool_q): Conv2d(64, 64, kernel_size=(3, 3), stride=(1, 1), padding=(1, 1), groups=64, bias=False)
            (norm_q): LayerNorm((64,), eps=1e-06, elementwise_affine=True)
            (pool_k): Conv2d(64, 64, kernel_size=(3, 3), stride=(1, 1), padding=(1, 1), groups=64, bias=False)
            (norm_k): LayerNorm((64,), eps=1e-06, elementwise_affine=True)
            (pool_v): Conv2d(64, 64, kernel_size=(3, 3), stride=(1, 1), padding=(1, 1), groups=64, bias=False)
            (norm_v): LayerNorm((64,), eps=1e-06, elementwise_affine=True)
          )
          (drop_path): DropPath(drop_prob=0.334)
          (norm2): LayerNorm((768,), eps=1e-06, elementwise_affine=True)
          (mlp): Mlp(
            (fc1): Linear(in_features=768, out_features=3072, bias=True)
            (act): GELU(approximate=none)
            (drop1): Dropout(p=0.0, inplace=False)
            (norm): Identity()
            (fc2): Linear(in_features=3072, out_features=768, bias=True)
            (drop2): Dropout(p=0.0, inplace=False)
          )
        )
        (45): MultiScaleBlock(
          (norm1): LayerNorm((768,), eps=1e-06, elementwise_affine=True)
          (attn): MultiScaleAttention(
            (qkv): Linear(in_features=768, out_features=2304, bias=True)
            (proj): Linear(in_features=768, out_features=768, bias=True)
            (pool_q): Conv2d(64, 64, kernel_size=(3, 3), stride=(1, 1), padding=(1, 1), groups=64, bias=False)
            (norm_q): LayerNorm((64,), eps=1e-06, elementwise_affine=True)
            (pool_k): Conv2d(64, 64, kernel_size=(3, 3), stride=(1, 1), padding=(1, 1), groups=64, bias=False)
            (norm_k): LayerNorm((64,), eps=1e-06, elementwise_affine=True)
            (pool_v): Conv2d(64, 64, kernel_size=(3, 3), stride=(1, 1), padding=(1, 1), groups=64, bias=False)
            (norm_v): LayerNorm((64,), eps=1e-06, elementwise_affine=True)
          )
          (drop_path): DropPath(drop_prob=0.342)
          (norm2): LayerNorm((768,), eps=1e-06, elementwise_affine=True)
          (mlp): Mlp(
            (fc1): Linear(in_features=768, out_features=3072, bias=True)
            (act): GELU(approximate=none)
            (drop1): Dropout(p=0.0, inplace=False)
            (norm): Identity()
            (fc2): Linear(in_features=3072, out_features=768, bias=True)
            (drop2): Dropout(p=0.0, inplace=False)
          )
        )
        (46): MultiScaleBlock(
          (norm1): LayerNorm((768,), eps=1e-06, elementwise_affine=True)
          (attn): MultiScaleAttention(
            (qkv): Linear(in_features=768, out_features=2304, bias=True)
            (proj): Linear(in_features=768, out_features=768, bias=True)
            (pool_q): Conv2d(64, 64, kernel_size=(3, 3), stride=(1, 1), padding=(1, 1), groups=64, bias=False)
            (norm_q): LayerNorm((64,), eps=1e-06, elementwise_affine=True)
            (pool_k): Conv2d(64, 64, kernel_size=(3, 3), stride=(1, 1), padding=(1, 1), groups=64, bias=False)
            (norm_k): LayerNorm((64,), eps=1e-06, elementwise_affine=True)
            (pool_v): Conv2d(64, 64, kernel_size=(3, 3), stride=(1, 1), padding=(1, 1), groups=64, bias=False)
            (norm_v): LayerNorm((64,), eps=1e-06, elementwise_affine=True)
          )
          (drop_path): DropPath(drop_prob=0.349)
          (norm2): LayerNorm((768,), eps=1e-06, elementwise_affine=True)
          (mlp): Mlp(
            (fc1): Linear(in_features=768, out_features=3072, bias=True)
            (act): GELU(approximate=none)
            (drop1): Dropout(p=0.0, inplace=False)
            (norm): Identity()
            (fc2): Linear(in_features=3072, out_features=768, bias=True)
            (drop2): Dropout(p=0.0, inplace=False)
          )
        )
        (47): MultiScaleBlock(
          (norm1): LayerNorm((768,), eps=1e-06, elementwise_affine=True)
          (attn): MultiScaleAttention(
            (qkv): Linear(in_features=768, out_features=2304, bias=True)
            (proj): Linear(in_features=768, out_features=768, bias=True)
            (pool_q): Conv2d(64, 64, kernel_size=(3, 3), stride=(1, 1), padding=(1, 1), groups=64, bias=False)
            (norm_q): LayerNorm((64,), eps=1e-06, elementwise_affine=True)
            (pool_k): Conv2d(64, 64, kernel_size=(3, 3), stride=(1, 1), padding=(1, 1), groups=64, bias=False)
            (norm_k): LayerNorm((64,), eps=1e-06, elementwise_affine=True)
            (pool_v): Conv2d(64, 64, kernel_size=(3, 3), stride=(1, 1), padding=(1, 1), groups=64, bias=False)
            (norm_v): LayerNorm((64,), eps=1e-06, elementwise_affine=True)
          )
          (drop_path): DropPath(drop_prob=0.357)
          (norm2): LayerNorm((768,), eps=1e-06, elementwise_affine=True)
          (mlp): Mlp(
            (fc1): Linear(in_features=768, out_features=3072, bias=True)
            (act): GELU(approximate=none)
            (drop1): Dropout(p=0.0, inplace=False)
            (norm): Identity()
            (fc2): Linear(in_features=3072, out_features=768, bias=True)
            (drop2): Dropout(p=0.0, inplace=False)
          )
        )
        (48): MultiScaleBlock(
          (norm1): LayerNorm((768,), eps=1e-06, elementwise_affine=True)
          (attn): MultiScaleAttention(
            (qkv): Linear(in_features=768, out_features=2304, bias=True)
            (proj): Linear(in_features=768, out_features=768, bias=True)
            (pool_q): Conv2d(64, 64, kernel_size=(3, 3), stride=(1, 1), padding=(1, 1), groups=64, bias=False)
            (norm_q): LayerNorm((64,), eps=1e-06, elementwise_affine=True)
            (pool_k): Conv2d(64, 64, kernel_size=(3, 3), stride=(1, 1), padding=(1, 1), groups=64, bias=False)
            (norm_k): LayerNorm((64,), eps=1e-06, elementwise_affine=True)
            (pool_v): Conv2d(64, 64, kernel_size=(3, 3), stride=(1, 1), padding=(1, 1), groups=64, bias=False)
            (norm_v): LayerNorm((64,), eps=1e-06, elementwise_affine=True)
          )
          (drop_path): DropPath(drop_prob=0.365)
          (norm2): LayerNorm((768,), eps=1e-06, elementwise_affine=True)
          (mlp): Mlp(
            (fc1): Linear(in_features=768, out_features=3072, bias=True)
            (act): GELU(approximate=none)
            (drop1): Dropout(p=0.0, inplace=False)
            (norm): Identity()
            (fc2): Linear(in_features=3072, out_features=768, bias=True)
            (drop2): Dropout(p=0.0, inplace=False)
          )
        )
        (49): MultiScaleBlock(
          (norm1): LayerNorm((768,), eps=1e-06, elementwise_affine=True)
          (attn): MultiScaleAttention(
            (qkv): Linear(in_features=768, out_features=2304, bias=True)
            (proj): Linear(in_features=768, out_features=768, bias=True)
            (pool_q): Conv2d(64, 64, kernel_size=(3, 3), stride=(1, 1), padding=(1, 1), groups=64, bias=False)
            (norm_q): LayerNorm((64,), eps=1e-06, elementwise_affine=True)
            (pool_k): Conv2d(64, 64, kernel_size=(3, 3), stride=(1, 1), padding=(1, 1), groups=64, bias=False)
            (norm_k): LayerNorm((64,), eps=1e-06, elementwise_affine=True)
            (pool_v): Conv2d(64, 64, kernel_size=(3, 3), stride=(1, 1), padding=(1, 1), groups=64, bias=False)
            (norm_v): LayerNorm((64,), eps=1e-06, elementwise_affine=True)
          )
          (drop_path): DropPath(drop_prob=0.372)
          (norm2): LayerNorm((768,), eps=1e-06, elementwise_affine=True)
          (mlp): Mlp(
            (fc1): Linear(in_features=768, out_features=3072, bias=True)
            (act): GELU(approximate=none)
            (drop1): Dropout(p=0.0, inplace=False)
            (norm): Identity()
            (fc2): Linear(in_features=3072, out_features=768, bias=True)
            (drop2): Dropout(p=0.0, inplace=False)
          )
        )
        (50): MultiScaleBlock(
          (norm1): LayerNorm((768,), eps=1e-06, elementwise_affine=True)
          (attn): MultiScaleAttention(
            (qkv): Linear(in_features=768, out_features=2304, bias=True)
            (proj): Linear(in_features=768, out_features=768, bias=True)
            (pool_q): Conv2d(64, 64, kernel_size=(3, 3), stride=(1, 1), padding=(1, 1), groups=64, bias=False)
            (norm_q): LayerNorm((64,), eps=1e-06, elementwise_affine=True)
            (pool_k): Conv2d(64, 64, kernel_size=(3, 3), stride=(1, 1), padding=(1, 1), groups=64, bias=False)
            (norm_k): LayerNorm((64,), eps=1e-06, elementwise_affine=True)
            (pool_v): Conv2d(64, 64, kernel_size=(3, 3), stride=(1, 1), padding=(1, 1), groups=64, bias=False)
            (norm_v): LayerNorm((64,), eps=1e-06, elementwise_affine=True)
          )
          (drop_path): DropPath(drop_prob=0.380)
          (norm2): LayerNorm((768,), eps=1e-06, elementwise_affine=True)
          (mlp): Mlp(
            (fc1): Linear(in_features=768, out_features=3072, bias=True)
            (act): GELU(approximate=none)
            (drop1): Dropout(p=0.0, inplace=False)
            (norm): Identity()
            (fc2): Linear(in_features=3072, out_features=768, bias=True)
            (drop2): Dropout(p=0.0, inplace=False)
          )
        )
        (51): MultiScaleBlock(
          (norm1): LayerNorm((768,), eps=1e-06, elementwise_affine=True)
          (attn): MultiScaleAttention(
            (qkv): Linear(in_features=768, out_features=2304, bias=True)
            (proj): Linear(in_features=768, out_features=768, bias=True)
            (pool_q): Conv2d(64, 64, kernel_size=(3, 3), stride=(1, 1), padding=(1, 1), groups=64, bias=False)
            (norm_q): LayerNorm((64,), eps=1e-06, elementwise_affine=True)
            (pool_k): Conv2d(64, 64, kernel_size=(3, 3), stride=(1, 1), padding=(1, 1), groups=64, bias=False)
            (norm_k): LayerNorm((64,), eps=1e-06, elementwise_affine=True)
            (pool_v): Conv2d(64, 64, kernel_size=(3, 3), stride=(1, 1), padding=(1, 1), groups=64, bias=False)
            (norm_v): LayerNorm((64,), eps=1e-06, elementwise_affine=True)
          )
          (drop_path): DropPath(drop_prob=0.387)
          (norm2): LayerNorm((768,), eps=1e-06, elementwise_affine=True)
          (mlp): Mlp(
            (fc1): Linear(in_features=768, out_features=3072, bias=True)
            (act): GELU(approximate=none)
            (drop1): Dropout(p=0.0, inplace=False)
            (norm): Identity()
            (fc2): Linear(in_features=3072, out_features=768, bias=True)
            (drop2): Dropout(p=0.0, inplace=False)
          )
        )
        (52): MultiScaleBlock(
          (norm1): LayerNorm((768,), eps=1e-06, elementwise_affine=True)
          (attn): MultiScaleAttention(
            (qkv): Linear(in_features=768, out_features=2304, bias=True)
            (proj): Linear(in_features=768, out_features=768, bias=True)
            (pool_q): Conv2d(64, 64, kernel_size=(3, 3), stride=(1, 1), padding=(1, 1), groups=64, bias=False)
            (norm_q): LayerNorm((64,), eps=1e-06, elementwise_affine=True)
            (pool_k): Conv2d(64, 64, kernel_size=(3, 3), stride=(1, 1), padding=(1, 1), groups=64, bias=False)
            (norm_k): LayerNorm((64,), eps=1e-06, elementwise_affine=True)
            (pool_v): Conv2d(64, 64, kernel_size=(3, 3), stride=(1, 1), padding=(1, 1), groups=64, bias=False)
            (norm_v): LayerNorm((64,), eps=1e-06, elementwise_affine=True)
          )
          (drop_path): DropPath(drop_prob=0.395)
          (norm2): LayerNorm((768,), eps=1e-06, elementwise_affine=True)
          (mlp): Mlp(
            (fc1): Linear(in_features=768, out_features=3072, bias=True)
            (act): GELU(approximate=none)
            (drop1): Dropout(p=0.0, inplace=False)
            (norm): Identity()
            (fc2): Linear(in_features=3072, out_features=768, bias=True)
            (drop2): Dropout(p=0.0, inplace=False)
          )
        )
        (53): MultiScaleBlock(
          (norm1): LayerNorm((768,), eps=1e-06, elementwise_affine=True)
          (attn): MultiScaleAttention(
            (qkv): Linear(in_features=768, out_features=2304, bias=True)
            (proj): Linear(in_features=768, out_features=768, bias=True)
            (pool_q): Conv2d(64, 64, kernel_size=(3, 3), stride=(1, 1), padding=(1, 1), groups=64, bias=False)
            (norm_q): LayerNorm((64,), eps=1e-06, elementwise_affine=True)
            (pool_k): Conv2d(64, 64, kernel_size=(3, 3), stride=(1, 1), padding=(1, 1), groups=64, bias=False)
            (norm_k): LayerNorm((64,), eps=1e-06, elementwise_affine=True)
            (pool_v): Conv2d(64, 64, kernel_size=(3, 3), stride=(1, 1), padding=(1, 1), groups=64, bias=False)
            (norm_v): LayerNorm((64,), eps=1e-06, elementwise_affine=True)
          )
          (drop_path): DropPath(drop_prob=0.403)
          (norm2): LayerNorm((768,), eps=1e-06, elementwise_affine=True)
          (mlp): Mlp(
            (fc1): Linear(in_features=768, out_features=3072, bias=True)
            (act): GELU(approximate=none)
            (drop1): Dropout(p=0.0, inplace=False)
            (norm): Identity()
            (fc2): Linear(in_features=3072, out_features=768, bias=True)
            (drop2): Dropout(p=0.0, inplace=False)
          )
        )
        (54): MultiScaleBlock(
          (norm1): LayerNorm((768,), eps=1e-06, elementwise_affine=True)
          (attn): MultiScaleAttention(
            (qkv): Linear(in_features=768, out_features=2304, bias=True)
            (proj): Linear(in_features=768, out_features=768, bias=True)
            (pool_q): Conv2d(64, 64, kernel_size=(3, 3), stride=(1, 1), padding=(1, 1), groups=64, bias=False)
            (norm_q): LayerNorm((64,), eps=1e-06, elementwise_affine=True)
            (pool_k): Conv2d(64, 64, kernel_size=(3, 3), stride=(1, 1), padding=(1, 1), groups=64, bias=False)
            (norm_k): LayerNorm((64,), eps=1e-06, elementwise_affine=True)
            (pool_v): Conv2d(64, 64, kernel_size=(3, 3), stride=(1, 1), padding=(1, 1), groups=64, bias=False)
            (norm_v): LayerNorm((64,), eps=1e-06, elementwise_affine=True)
          )
          (drop_path): DropPath(drop_prob=0.410)
          (norm2): LayerNorm((768,), eps=1e-06, elementwise_affine=True)
          (mlp): Mlp(
            (fc1): Linear(in_features=768, out_features=3072, bias=True)
            (act): GELU(approximate=none)
            (drop1): Dropout(p=0.0, inplace=False)
            (norm): Identity()
            (fc2): Linear(in_features=3072, out_features=768, bias=True)
            (drop2): Dropout(p=0.0, inplace=False)
          )
        )
        (55): MultiScaleBlock(
          (norm1): LayerNorm((768,), eps=1e-06, elementwise_affine=True)
          (attn): MultiScaleAttention(
            (qkv): Linear(in_features=768, out_features=2304, bias=True)
            (proj): Linear(in_features=768, out_features=768, bias=True)
            (pool_q): Conv2d(64, 64, kernel_size=(3, 3), stride=(1, 1), padding=(1, 1), groups=64, bias=False)
            (norm_q): LayerNorm((64,), eps=1e-06, elementwise_affine=True)
            (pool_k): Conv2d(64, 64, kernel_size=(3, 3), stride=(1, 1), padding=(1, 1), groups=64, bias=False)
            (norm_k): LayerNorm((64,), eps=1e-06, elementwise_affine=True)
            (pool_v): Conv2d(64, 64, kernel_size=(3, 3), stride=(1, 1), padding=(1, 1), groups=64, bias=False)
            (norm_v): LayerNorm((64,), eps=1e-06, elementwise_affine=True)
          )
          (drop_path): DropPath(drop_prob=0.418)
          (norm2): LayerNorm((768,), eps=1e-06, elementwise_affine=True)
          (mlp): Mlp(
            (fc1): Linear(in_features=768, out_features=3072, bias=True)
            (act): GELU(approximate=none)
            (drop1): Dropout(p=0.0, inplace=False)
            (norm): Identity()
            (fc2): Linear(in_features=3072, out_features=768, bias=True)
            (drop2): Dropout(p=0.0, inplace=False)
          )
        )
        (56): MultiScaleBlock(
          (norm1): LayerNorm((768,), eps=1e-06, elementwise_affine=True)
          (attn): MultiScaleAttention(
            (qkv): Linear(in_features=768, out_features=2304, bias=True)
            (proj): Linear(in_features=768, out_features=768, bias=True)
            (pool_q): Conv2d(64, 64, kernel_size=(3, 3), stride=(1, 1), padding=(1, 1), groups=64, bias=False)
            (norm_q): LayerNorm((64,), eps=1e-06, elementwise_affine=True)
            (pool_k): Conv2d(64, 64, kernel_size=(3, 3), stride=(1, 1), padding=(1, 1), groups=64, bias=False)
            (norm_k): LayerNorm((64,), eps=1e-06, elementwise_affine=True)
            (pool_v): Conv2d(64, 64, kernel_size=(3, 3), stride=(1, 1), padding=(1, 1), groups=64, bias=False)
            (norm_v): LayerNorm((64,), eps=1e-06, elementwise_affine=True)
          )
          (drop_path): DropPath(drop_prob=0.425)
          (norm2): LayerNorm((768,), eps=1e-06, elementwise_affine=True)
          (mlp): Mlp(
            (fc1): Linear(in_features=768, out_features=3072, bias=True)
            (act): GELU(approximate=none)
            (drop1): Dropout(p=0.0, inplace=False)
            (norm): Identity()
            (fc2): Linear(in_features=3072, out_features=768, bias=True)
            (drop2): Dropout(p=0.0, inplace=False)
          )
        )
        (57): MultiScaleBlock(
          (norm1): LayerNorm((768,), eps=1e-06, elementwise_affine=True)
          (attn): MultiScaleAttention(
            (qkv): Linear(in_features=768, out_features=2304, bias=True)
            (proj): Linear(in_features=768, out_features=768, bias=True)
            (pool_q): Conv2d(64, 64, kernel_size=(3, 3), stride=(1, 1), padding=(1, 1), groups=64, bias=False)
            (norm_q): LayerNorm((64,), eps=1e-06, elementwise_affine=True)
            (pool_k): Conv2d(64, 64, kernel_size=(3, 3), stride=(1, 1), padding=(1, 1), groups=64, bias=False)
            (norm_k): LayerNorm((64,), eps=1e-06, elementwise_affine=True)
            (pool_v): Conv2d(64, 64, kernel_size=(3, 3), stride=(1, 1), padding=(1, 1), groups=64, bias=False)
            (norm_v): LayerNorm((64,), eps=1e-06, elementwise_affine=True)
          )
          (drop_path): DropPath(drop_prob=0.433)
          (norm2): LayerNorm((768,), eps=1e-06, elementwise_affine=True)
          (mlp): Mlp(
            (fc1): Linear(in_features=768, out_features=3072, bias=True)
            (act): GELU(approximate=none)
            (drop1): Dropout(p=0.0, inplace=False)
            (norm): Identity()
            (fc2): Linear(in_features=3072, out_features=768, bias=True)
            (drop2): Dropout(p=0.0, inplace=False)
          )
        )
        (58): MultiScaleBlock(
          (norm1): LayerNorm((768,), eps=1e-06, elementwise_affine=True)
          (attn): MultiScaleAttention(
            (qkv): Linear(in_features=768, out_features=2304, bias=True)
            (proj): Linear(in_features=768, out_features=768, bias=True)
            (pool_q): Conv2d(64, 64, kernel_size=(3, 3), stride=(1, 1), padding=(1, 1), groups=64, bias=False)
            (norm_q): LayerNorm((64,), eps=1e-06, elementwise_affine=True)
            (pool_k): Conv2d(64, 64, kernel_size=(3, 3), stride=(1, 1), padding=(1, 1), groups=64, bias=False)
            (norm_k): LayerNorm((64,), eps=1e-06, elementwise_affine=True)
            (pool_v): Conv2d(64, 64, kernel_size=(3, 3), stride=(1, 1), padding=(1, 1), groups=64, bias=False)
            (norm_v): LayerNorm((64,), eps=1e-06, elementwise_affine=True)
          )
          (drop_path): DropPath(drop_prob=0.441)
          (norm2): LayerNorm((768,), eps=1e-06, elementwise_affine=True)
          (mlp): Mlp(
            (fc1): Linear(in_features=768, out_features=3072, bias=True)
            (act): GELU(approximate=none)
            (drop1): Dropout(p=0.0, inplace=False)
            (norm): Identity()
            (fc2): Linear(in_features=3072, out_features=768, bias=True)
            (drop2): Dropout(p=0.0, inplace=False)
          )
        )
        (59): MultiScaleBlock(
          (norm1): LayerNorm((768,), eps=1e-06, elementwise_affine=True)
          (attn): MultiScaleAttention(
            (qkv): Linear(in_features=768, out_features=2304, bias=True)
            (proj): Linear(in_features=768, out_features=768, bias=True)
            (pool_q): Conv2d(64, 64, kernel_size=(3, 3), stride=(1, 1), padding=(1, 1), groups=64, bias=False)
            (norm_q): LayerNorm((64,), eps=1e-06, elementwise_affine=True)
            (pool_k): Conv2d(64, 64, kernel_size=(3, 3), stride=(1, 1), padding=(1, 1), groups=64, bias=False)
            (norm_k): LayerNorm((64,), eps=1e-06, elementwise_affine=True)
            (pool_v): Conv2d(64, 64, kernel_size=(3, 3), stride=(1, 1), padding=(1, 1), groups=64, bias=False)
            (norm_v): LayerNorm((64,), eps=1e-06, elementwise_affine=True)
          )
          (drop_path): DropPath(drop_prob=0.448)
          (norm2): LayerNorm((768,), eps=1e-06, elementwise_affine=True)
          (mlp): Mlp(
            (fc1): Linear(in_features=768, out_features=3072, bias=True)
            (act): GELU(approximate=none)
            (drop1): Dropout(p=0.0, inplace=False)
            (norm): Identity()
            (fc2): Linear(in_features=3072, out_features=768, bias=True)
            (drop2): Dropout(p=0.0, inplace=False)
          )
        )
        (60): MultiScaleBlock(
          (norm1): LayerNorm((768,), eps=1e-06, elementwise_affine=True)
          (attn): MultiScaleAttention(
            (qkv): Linear(in_features=768, out_features=2304, bias=True)
            (proj): Linear(in_features=768, out_features=768, bias=True)
            (pool_q): Conv2d(64, 64, kernel_size=(3, 3), stride=(1, 1), padding=(1, 1), groups=64, bias=False)
            (norm_q): LayerNorm((64,), eps=1e-06, elementwise_affine=True)
            (pool_k): Conv2d(64, 64, kernel_size=(3, 3), stride=(1, 1), padding=(1, 1), groups=64, bias=False)
            (norm_k): LayerNorm((64,), eps=1e-06, elementwise_affine=True)
            (pool_v): Conv2d(64, 64, kernel_size=(3, 3), stride=(1, 1), padding=(1, 1), groups=64, bias=False)
            (norm_v): LayerNorm((64,), eps=1e-06, elementwise_affine=True)
          )
          (drop_path): DropPath(drop_prob=0.456)
          (norm2): LayerNorm((768,), eps=1e-06, elementwise_affine=True)
          (mlp): Mlp(
            (fc1): Linear(in_features=768, out_features=3072, bias=True)
            (act): GELU(approximate=none)
            (drop1): Dropout(p=0.0, inplace=False)
            (norm): Identity()
            (fc2): Linear(in_features=3072, out_features=768, bias=True)
            (drop2): Dropout(p=0.0, inplace=False)
          )
        )
        (61): MultiScaleBlock(
          (norm1): LayerNorm((768,), eps=1e-06, elementwise_affine=True)
          (attn): MultiScaleAttention(
            (qkv): Linear(in_features=768, out_features=2304, bias=True)
            (proj): Linear(in_features=768, out_features=768, bias=True)
            (pool_q): Conv2d(64, 64, kernel_size=(3, 3), stride=(1, 1), padding=(1, 1), groups=64, bias=False)
            (norm_q): LayerNorm((64,), eps=1e-06, elementwise_affine=True)
            (pool_k): Conv2d(64, 64, kernel_size=(3, 3), stride=(1, 1), padding=(1, 1), groups=64, bias=False)
            (norm_k): LayerNorm((64,), eps=1e-06, elementwise_affine=True)
            (pool_v): Conv2d(64, 64, kernel_size=(3, 3), stride=(1, 1), padding=(1, 1), groups=64, bias=False)
            (norm_v): LayerNorm((64,), eps=1e-06, elementwise_affine=True)
          )
          (drop_path): DropPath(drop_prob=0.463)
          (norm2): LayerNorm((768,), eps=1e-06, elementwise_affine=True)
          (mlp): Mlp(
            (fc1): Linear(in_features=768, out_features=3072, bias=True)
            (act): GELU(approximate=none)
            (drop1): Dropout(p=0.0, inplace=False)
            (norm): Identity()
            (fc2): Linear(in_features=3072, out_features=768, bias=True)
            (drop2): Dropout(p=0.0, inplace=False)
          )
        )
        (62): MultiScaleBlock(
          (norm1): LayerNorm((768,), eps=1e-06, elementwise_affine=True)
          (attn): MultiScaleAttention(
            (qkv): Linear(in_features=768, out_features=2304, bias=True)
            (proj): Linear(in_features=768, out_features=768, bias=True)
            (pool_q): Conv2d(64, 64, kernel_size=(3, 3), stride=(1, 1), padding=(1, 1), groups=64, bias=False)
            (norm_q): LayerNorm((64,), eps=1e-06, elementwise_affine=True)
            (pool_k): Conv2d(64, 64, kernel_size=(3, 3), stride=(1, 1), padding=(1, 1), groups=64, bias=False)
            (norm_k): LayerNorm((64,), eps=1e-06, elementwise_affine=True)
            (pool_v): Conv2d(64, 64, kernel_size=(3, 3), stride=(1, 1), padding=(1, 1), groups=64, bias=False)
            (norm_v): LayerNorm((64,), eps=1e-06, elementwise_affine=True)
          )
          (drop_path): DropPath(drop_prob=0.471)
          (norm2): LayerNorm((768,), eps=1e-06, elementwise_affine=True)
          (mlp): Mlp(
            (fc1): Linear(in_features=768, out_features=3072, bias=True)
            (act): GELU(approximate=none)
            (drop1): Dropout(p=0.0, inplace=False)
            (norm): Identity()
            (fc2): Linear(in_features=3072, out_features=768, bias=True)
            (drop2): Dropout(p=0.0, inplace=False)
          )
        )
        (63): MultiScaleBlock(
          (norm1): LayerNorm((768,), eps=1e-06, elementwise_affine=True)
          (attn): MultiScaleAttention(
            (qkv): Linear(in_features=768, out_features=2304, bias=True)
            (proj): Linear(in_features=768, out_features=768, bias=True)
            (pool_q): Conv2d(64, 64, kernel_size=(3, 3), stride=(1, 1), padding=(1, 1), groups=64, bias=False)
            (norm_q): LayerNorm((64,), eps=1e-06, elementwise_affine=True)
            (pool_k): Conv2d(64, 64, kernel_size=(3, 3), stride=(1, 1), padding=(1, 1), groups=64, bias=False)
            (norm_k): LayerNorm((64,), eps=1e-06, elementwise_affine=True)
            (pool_v): Conv2d(64, 64, kernel_size=(3, 3), stride=(1, 1), padding=(1, 1), groups=64, bias=False)
            (norm_v): LayerNorm((64,), eps=1e-06, elementwise_affine=True)
          )
          (drop_path): DropPath(drop_prob=0.478)
          (norm2): LayerNorm((768,), eps=1e-06, elementwise_affine=True)
          (mlp): Mlp(
            (fc1): Linear(in_features=768, out_features=3072, bias=True)
            (act): GELU(approximate=none)
            (drop1): Dropout(p=0.0, inplace=False)
            (norm): Identity()
            (fc2): Linear(in_features=3072, out_features=768, bias=True)
            (drop2): Dropout(p=0.0, inplace=False)
          )
        )
        (64): MultiScaleBlock(
          (norm1): LayerNorm((768,), eps=1e-06, elementwise_affine=True)
          (attn): MultiScaleAttention(
            (qkv): Linear(in_features=768, out_features=2304, bias=True)
            (proj): Linear(in_features=768, out_features=768, bias=True)
            (pool_q): Conv2d(64, 64, kernel_size=(3, 3), stride=(1, 1), padding=(1, 1), groups=64, bias=False)
            (norm_q): LayerNorm((64,), eps=1e-06, elementwise_affine=True)
            (pool_k): Conv2d(64, 64, kernel_size=(3, 3), stride=(1, 1), padding=(1, 1), groups=64, bias=False)
            (norm_k): LayerNorm((64,), eps=1e-06, elementwise_affine=True)
            (pool_v): Conv2d(64, 64, kernel_size=(3, 3), stride=(1, 1), padding=(1, 1), groups=64, bias=False)
            (norm_v): LayerNorm((64,), eps=1e-06, elementwise_affine=True)
          )
          (drop_path): DropPath(drop_prob=0.486)
          (norm2): LayerNorm((768,), eps=1e-06, elementwise_affine=True)
          (mlp): Mlp(
            (fc1): Linear(in_features=768, out_features=3072, bias=True)
            (act): GELU(approximate=none)
            (drop1): Dropout(p=0.0, inplace=False)
            (norm): Identity()
            (fc2): Linear(in_features=3072, out_features=768, bias=True)
            (drop2): Dropout(p=0.0, inplace=False)
          )
        )
        (65): MultiScaleBlock(
          (norm1): LayerNorm((768,), eps=1e-06, elementwise_affine=True)
          (attn): MultiScaleAttention(
            (qkv): Linear(in_features=768, out_features=2304, bias=True)
            (proj): Linear(in_features=768, out_features=768, bias=True)
            (pool_q): Conv2d(64, 64, kernel_size=(3, 3), stride=(1, 1), padding=(1, 1), groups=64, bias=False)
            (norm_q): LayerNorm((64,), eps=1e-06, elementwise_affine=True)
            (pool_k): Conv2d(64, 64, kernel_size=(3, 3), stride=(1, 1), padding=(1, 1), groups=64, bias=False)
            (norm_k): LayerNorm((64,), eps=1e-06, elementwise_affine=True)
            (pool_v): Conv2d(64, 64, kernel_size=(3, 3), stride=(1, 1), padding=(1, 1), groups=64, bias=False)
            (norm_v): LayerNorm((64,), eps=1e-06, elementwise_affine=True)
          )
          (drop_path): DropPath(drop_prob=0.494)
          (norm2): LayerNorm((768,), eps=1e-06, elementwise_affine=True)
          (mlp): Mlp(
            (fc1): Linear(in_features=768, out_features=3072, bias=True)
            (act): GELU(approximate=none)
            (drop1): Dropout(p=0.0, inplace=False)
            (norm): Identity()
            (fc2): Linear(in_features=3072, out_features=768, bias=True)
            (drop2): Dropout(p=0.0, inplace=False)
          )
        )
        (66): MultiScaleBlock(
          (norm1): LayerNorm((768,), eps=1e-06, elementwise_affine=True)
          (attn): MultiScaleAttention(
            (qkv): Linear(in_features=768, out_features=2304, bias=True)
            (proj): Linear(in_features=768, out_features=768, bias=True)
            (pool_q): Conv2d(64, 64, kernel_size=(3, 3), stride=(1, 1), padding=(1, 1), groups=64, bias=False)
            (norm_q): LayerNorm((64,), eps=1e-06, elementwise_affine=True)
            (pool_k): Conv2d(64, 64, kernel_size=(3, 3), stride=(1, 1), padding=(1, 1), groups=64, bias=False)
            (norm_k): LayerNorm((64,), eps=1e-06, elementwise_affine=True)
            (pool_v): Conv2d(64, 64, kernel_size=(3, 3), stride=(1, 1), padding=(1, 1), groups=64, bias=False)
            (norm_v): LayerNorm((64,), eps=1e-06, elementwise_affine=True)
          )
          (drop_path): DropPath(drop_prob=0.501)
          (norm2): LayerNorm((768,), eps=1e-06, elementwise_affine=True)
          (mlp): Mlp(
            (fc1): Linear(in_features=768, out_features=3072, bias=True)
            (act): GELU(approximate=none)
            (drop1): Dropout(p=0.0, inplace=False)
            (norm): Identity()
            (fc2): Linear(in_features=3072, out_features=768, bias=True)
            (drop2): Dropout(p=0.0, inplace=False)
          )
        )
        (67): MultiScaleBlock(
          (norm1): LayerNorm((768,), eps=1e-06, elementwise_affine=True)
          (attn): MultiScaleAttention(
            (qkv): Linear(in_features=768, out_features=2304, bias=True)
            (proj): Linear(in_features=768, out_features=768, bias=True)
            (pool_q): Conv2d(64, 64, kernel_size=(3, 3), stride=(1, 1), padding=(1, 1), groups=64, bias=False)
            (norm_q): LayerNorm((64,), eps=1e-06, elementwise_affine=True)
            (pool_k): Conv2d(64, 64, kernel_size=(3, 3), stride=(1, 1), padding=(1, 1), groups=64, bias=False)
            (norm_k): LayerNorm((64,), eps=1e-06, elementwise_affine=True)
            (pool_v): Conv2d(64, 64, kernel_size=(3, 3), stride=(1, 1), padding=(1, 1), groups=64, bias=False)
            (norm_v): LayerNorm((64,), eps=1e-06, elementwise_affine=True)
          )
          (drop_path): DropPath(drop_prob=0.509)
          (norm2): LayerNorm((768,), eps=1e-06, elementwise_affine=True)
          (mlp): Mlp(
            (fc1): Linear(in_features=768, out_features=3072, bias=True)
            (act): GELU(approximate=none)
            (drop1): Dropout(p=0.0, inplace=False)
            (norm): Identity()
            (fc2): Linear(in_features=3072, out_features=768, bias=True)
            (drop2): Dropout(p=0.0, inplace=False)
          )
        )
        (68): MultiScaleBlock(
          (norm1): LayerNorm((768,), eps=1e-06, elementwise_affine=True)
          (attn): MultiScaleAttention(
            (qkv): Linear(in_features=768, out_features=2304, bias=True)
            (proj): Linear(in_features=768, out_features=768, bias=True)
            (pool_q): Conv2d(64, 64, kernel_size=(3, 3), stride=(1, 1), padding=(1, 1), groups=64, bias=False)
            (norm_q): LayerNorm((64,), eps=1e-06, elementwise_affine=True)
            (pool_k): Conv2d(64, 64, kernel_size=(3, 3), stride=(1, 1), padding=(1, 1), groups=64, bias=False)
            (norm_k): LayerNorm((64,), eps=1e-06, elementwise_affine=True)
            (pool_v): Conv2d(64, 64, kernel_size=(3, 3), stride=(1, 1), padding=(1, 1), groups=64, bias=False)
            (norm_v): LayerNorm((64,), eps=1e-06, elementwise_affine=True)
          )
          (drop_path): DropPath(drop_prob=0.516)
          (norm2): LayerNorm((768,), eps=1e-06, elementwise_affine=True)
          (mlp): Mlp(
            (fc1): Linear(in_features=768, out_features=3072, bias=True)
            (act): GELU(approximate=none)
            (drop1): Dropout(p=0.0, inplace=False)
            (norm): Identity()
            (fc2): Linear(in_features=3072, out_features=768, bias=True)
            (drop2): Dropout(p=0.0, inplace=False)
          )
        )
        (69): MultiScaleBlock(
          (norm1): LayerNorm((768,), eps=1e-06, elementwise_affine=True)
          (attn): MultiScaleAttention(
            (qkv): Linear(in_features=768, out_features=2304, bias=True)
            (proj): Linear(in_features=768, out_features=768, bias=True)
            (pool_q): Conv2d(64, 64, kernel_size=(3, 3), stride=(1, 1), padding=(1, 1), groups=64, bias=False)
            (norm_q): LayerNorm((64,), eps=1e-06, elementwise_affine=True)
            (pool_k): Conv2d(64, 64, kernel_size=(3, 3), stride=(1, 1), padding=(1, 1), groups=64, bias=False)
            (norm_k): LayerNorm((64,), eps=1e-06, elementwise_affine=True)
            (pool_v): Conv2d(64, 64, kernel_size=(3, 3), stride=(1, 1), padding=(1, 1), groups=64, bias=False)
            (norm_v): LayerNorm((64,), eps=1e-06, elementwise_affine=True)
          )
          (drop_path): DropPath(drop_prob=0.524)
          (norm2): LayerNorm((768,), eps=1e-06, elementwise_affine=True)
          (mlp): Mlp(
            (fc1): Linear(in_features=768, out_features=3072, bias=True)
            (act): GELU(approximate=none)
            (drop1): Dropout(p=0.0, inplace=False)
            (norm): Identity()
            (fc2): Linear(in_features=3072, out_features=768, bias=True)
            (drop2): Dropout(p=0.0, inplace=False)
          )
        )
        (70): MultiScaleBlock(
          (norm1): LayerNorm((768,), eps=1e-06, elementwise_affine=True)
          (attn): MultiScaleAttention(
            (qkv): Linear(in_features=768, out_features=2304, bias=True)
            (proj): Linear(in_features=768, out_features=768, bias=True)
            (pool_q): Conv2d(64, 64, kernel_size=(3, 3), stride=(1, 1), padding=(1, 1), groups=64, bias=False)
            (norm_q): LayerNorm((64,), eps=1e-06, elementwise_affine=True)
            (pool_k): Conv2d(64, 64, kernel_size=(3, 3), stride=(1, 1), padding=(1, 1), groups=64, bias=False)
            (norm_k): LayerNorm((64,), eps=1e-06, elementwise_affine=True)
            (pool_v): Conv2d(64, 64, kernel_size=(3, 3), stride=(1, 1), padding=(1, 1), groups=64, bias=False)
            (norm_v): LayerNorm((64,), eps=1e-06, elementwise_affine=True)
          )
          (drop_path): DropPath(drop_prob=0.532)
          (norm2): LayerNorm((768,), eps=1e-06, elementwise_affine=True)
          (mlp): Mlp(
            (fc1): Linear(in_features=768, out_features=3072, bias=True)
            (act): GELU(approximate=none)
            (drop1): Dropout(p=0.0, inplace=False)
            (norm): Identity()
            (fc2): Linear(in_features=3072, out_features=768, bias=True)
            (drop2): Dropout(p=0.0, inplace=False)
          )
        )
        (71): MultiScaleBlock(
          (norm1): LayerNorm((768,), eps=1e-06, elementwise_affine=True)
          (attn): MultiScaleAttention(
            (qkv): Linear(in_features=768, out_features=2304, bias=True)
            (proj): Linear(in_features=768, out_features=768, bias=True)
            (pool_q): Conv2d(64, 64, kernel_size=(3, 3), stride=(1, 1), padding=(1, 1), groups=64, bias=False)
            (norm_q): LayerNorm((64,), eps=1e-06, elementwise_affine=True)
            (pool_k): Conv2d(64, 64, kernel_size=(3, 3), stride=(2, 2), padding=(1, 1), groups=64, bias=False)
            (norm_k): LayerNorm((64,), eps=1e-06, elementwise_affine=True)
            (pool_v): Conv2d(64, 64, kernel_size=(3, 3), stride=(2, 2), padding=(1, 1), groups=64, bias=False)
            (norm_v): LayerNorm((64,), eps=1e-06, elementwise_affine=True)
          )
          (drop_path): DropPath(drop_prob=0.539)
          (norm2): LayerNorm((768,), eps=1e-06, elementwise_affine=True)
          (mlp): Mlp(
            (fc1): Linear(in_features=768, out_features=3072, bias=True)
            (act): GELU(approximate=none)
            (drop1): Dropout(p=0.0, inplace=False)
            (norm): Identity()
            (fc2): Linear(in_features=3072, out_features=768, bias=True)
            (drop2): Dropout(p=0.0, inplace=False)
          )
        )
        (72): MultiScaleBlock(
          (norm1): LayerNorm((768,), eps=1e-06, elementwise_affine=True)
          (attn): MultiScaleAttention(
            (qkv): Linear(in_features=768, out_features=4608, bias=True)
            (proj): Linear(in_features=1536, out_features=1536, bias=True)
            (pool_q): Conv2d(64, 64, kernel_size=(3, 3), stride=(2, 2), padding=(1, 1), groups=64, bias=False)
            (norm_q): LayerNorm((64,), eps=1e-06, elementwise_affine=True)
            (pool_k): Conv2d(64, 64, kernel_size=(3, 3), stride=(1, 1), padding=(1, 1), groups=64, bias=False)
            (norm_k): LayerNorm((64,), eps=1e-06, elementwise_affine=True)
            (pool_v): Conv2d(64, 64, kernel_size=(3, 3), stride=(1, 1), padding=(1, 1), groups=64, bias=False)
            (norm_v): LayerNorm((64,), eps=1e-06, elementwise_affine=True)
          )
          (drop_path): DropPath(drop_prob=0.547)
          (norm2): LayerNorm((1536,), eps=1e-06, elementwise_affine=True)
          (mlp): Mlp(
            (fc1): Linear(in_features=1536, out_features=6144, bias=True)
            (act): GELU(approximate=none)
            (drop1): Dropout(p=0.0, inplace=False)
            (norm): Identity()
            (fc2): Linear(in_features=6144, out_features=1536, bias=True)
            (drop2): Dropout(p=0.0, inplace=False)
          )
          (proj): Linear(in_features=768, out_features=1536, bias=True)
          (pool_skip): MaxPool2d(kernel_size=3, stride=2, padding=1, dilation=1, ceil_mode=False)
        )
        (73): MultiScaleBlock(
          (norm1): LayerNorm((1536,), eps=1e-06, elementwise_affine=True)
          (attn): MultiScaleAttention(
            (qkv): Linear(in_features=1536, out_features=4608, bias=True)
            (proj): Linear(in_features=1536, out_features=1536, bias=True)
            (pool_q): Conv2d(64, 64, kernel_size=(3, 3), stride=(1, 1), padding=(1, 1), groups=64, bias=False)
            (norm_q): LayerNorm((64,), eps=1e-06, elementwise_affine=True)
            (pool_k): Conv2d(64, 64, kernel_size=(3, 3), stride=(1, 1), padding=(1, 1), groups=64, bias=False)
            (norm_k): LayerNorm((64,), eps=1e-06, elementwise_affine=True)
            (pool_v): Conv2d(64, 64, kernel_size=(3, 3), stride=(1, 1), padding=(1, 1), groups=64, bias=False)
            (norm_v): LayerNorm((64,), eps=1e-06, elementwise_affine=True)
          )
          (drop_path): DropPath(drop_prob=0.554)
          (norm2): LayerNorm((1536,), eps=1e-06, elementwise_affine=True)
          (mlp): Mlp(
            (fc1): Linear(in_features=1536, out_features=6144, bias=True)
            (act): GELU(approximate=none)
            (drop1): Dropout(p=0.0, inplace=False)
            (norm): Identity()
            (fc2): Linear(in_features=6144, out_features=1536, bias=True)
            (drop2): Dropout(p=0.0, inplace=False)
          )
        )
        (74): MultiScaleBlock(
          (norm1): LayerNorm((1536,), eps=1e-06, elementwise_affine=True)
          (attn): MultiScaleAttention(
            (qkv): Linear(in_features=1536, out_features=4608, bias=True)
            (proj): Linear(in_features=1536, out_features=1536, bias=True)
            (pool_q): Conv2d(64, 64, kernel_size=(3, 3), stride=(1, 1), padding=(1, 1), groups=64, bias=False)
            (norm_q): LayerNorm((64,), eps=1e-06, elementwise_affine=True)
            (pool_k): Conv2d(64, 64, kernel_size=(3, 3), stride=(1, 1), padding=(1, 1), groups=64, bias=False)
            (norm_k): LayerNorm((64,), eps=1e-06, elementwise_affine=True)
            (pool_v): Conv2d(64, 64, kernel_size=(3, 3), stride=(1, 1), padding=(1, 1), groups=64, bias=False)
            (norm_v): LayerNorm((64,), eps=1e-06, elementwise_affine=True)
          )
          (drop_path): DropPath(drop_prob=0.562)
          (norm2): LayerNorm((1536,), eps=1e-06, elementwise_affine=True)
          (mlp): Mlp(
            (fc1): Linear(in_features=1536, out_features=6144, bias=True)
            (act): GELU(approximate=none)
            (drop1): Dropout(p=0.0, inplace=False)
            (norm): Identity()
            (fc2): Linear(in_features=6144, out_features=1536, bias=True)
            (drop2): Dropout(p=0.0, inplace=False)
          )
        )
        (75): MultiScaleBlock(
          (norm1): LayerNorm((1536,), eps=1e-06, elementwise_affine=True)
          (attn): MultiScaleAttention(
            (qkv): Linear(in_features=1536, out_features=4608, bias=True)
            (proj): Linear(in_features=1536, out_features=1536, bias=True)
            (pool_q): Conv2d(64, 64, kernel_size=(3, 3), stride=(1, 1), padding=(1, 1), groups=64, bias=False)
            (norm_q): LayerNorm((64,), eps=1e-06, elementwise_affine=True)
            (pool_k): Conv2d(64, 64, kernel_size=(3, 3), stride=(1, 1), padding=(1, 1), groups=64, bias=False)
            (norm_k): LayerNorm((64,), eps=1e-06, elementwise_affine=True)
            (pool_v): Conv2d(64, 64, kernel_size=(3, 3), stride=(1, 1), padding=(1, 1), groups=64, bias=False)
            (norm_v): LayerNorm((64,), eps=1e-06, elementwise_affine=True)
          )
          (drop_path): DropPath(drop_prob=0.570)
          (norm2): LayerNorm((1536,), eps=1e-06, elementwise_affine=True)
          (mlp): Mlp(
            (fc1): Linear(in_features=1536, out_features=6144, bias=True)
            (act): GELU(approximate=none)
            (drop1): Dropout(p=0.0, inplace=False)
            (norm): Identity()
            (fc2): Linear(in_features=6144, out_features=1536, bias=True)
            (drop2): Dropout(p=0.0, inplace=False)
          )
        )
        (76): MultiScaleBlock(
          (norm1): LayerNorm((1536,), eps=1e-06, elementwise_affine=True)
          (attn): MultiScaleAttention(
            (qkv): Linear(in_features=1536, out_features=4608, bias=True)
            (proj): Linear(in_features=1536, out_features=1536, bias=True)
            (pool_q): Conv2d(64, 64, kernel_size=(3, 3), stride=(1, 1), padding=(1, 1), groups=64, bias=False)
            (norm_q): LayerNorm((64,), eps=1e-06, elementwise_affine=True)
            (pool_k): Conv2d(64, 64, kernel_size=(3, 3), stride=(1, 1), padding=(1, 1), groups=64, bias=False)
            (norm_k): LayerNorm((64,), eps=1e-06, elementwise_affine=True)
            (pool_v): Conv2d(64, 64, kernel_size=(3, 3), stride=(1, 1), padding=(1, 1), groups=64, bias=False)
            (norm_v): LayerNorm((64,), eps=1e-06, elementwise_affine=True)
          )
          (drop_path): DropPath(drop_prob=0.577)
          (norm2): LayerNorm((1536,), eps=1e-06, elementwise_affine=True)
          (mlp): Mlp(
            (fc1): Linear(in_features=1536, out_features=6144, bias=True)
            (act): GELU(approximate=none)
            (drop1): Dropout(p=0.0, inplace=False)
            (norm): Identity()
            (fc2): Linear(in_features=6144, out_features=1536, bias=True)
            (drop2): Dropout(p=0.0, inplace=False)
          )
        )
        (77): MultiScaleBlock(
          (norm1): LayerNorm((1536,), eps=1e-06, elementwise_affine=True)
          (attn): MultiScaleAttention(
            (qkv): Linear(in_features=1536, out_features=4608, bias=True)
            (proj): Linear(in_features=1536, out_features=1536, bias=True)
            (pool_q): Conv2d(64, 64, kernel_size=(3, 3), stride=(1, 1), padding=(1, 1), groups=64, bias=False)
            (norm_q): LayerNorm((64,), eps=1e-06, elementwise_affine=True)
            (pool_k): Conv2d(64, 64, kernel_size=(3, 3), stride=(1, 1), padding=(1, 1), groups=64, bias=False)
            (norm_k): LayerNorm((64,), eps=1e-06, elementwise_affine=True)
            (pool_v): Conv2d(64, 64, kernel_size=(3, 3), stride=(1, 1), padding=(1, 1), groups=64, bias=False)
            (norm_v): LayerNorm((64,), eps=1e-06, elementwise_affine=True)
          )
          (drop_path): DropPath(drop_prob=0.585)
          (norm2): LayerNorm((1536,), eps=1e-06, elementwise_affine=True)
          (mlp): Mlp(
            (fc1): Linear(in_features=1536, out_features=6144, bias=True)
            (act): GELU(approximate=none)
            (drop1): Dropout(p=0.0, inplace=False)
            (norm): Identity()
            (fc2): Linear(in_features=6144, out_features=1536, bias=True)
            (drop2): Dropout(p=0.0, inplace=False)
          )
        )
        (78): MultiScaleBlock(
          (norm1): LayerNorm((1536,), eps=1e-06, elementwise_affine=True)
          (attn): MultiScaleAttention(
            (qkv): Linear(in_features=1536, out_features=4608, bias=True)
            (proj): Linear(in_features=1536, out_features=1536, bias=True)
            (pool_q): Conv2d(64, 64, kernel_size=(3, 3), stride=(1, 1), padding=(1, 1), groups=64, bias=False)
            (norm_q): LayerNorm((64,), eps=1e-06, elementwise_affine=True)
            (pool_k): Conv2d(64, 64, kernel_size=(3, 3), stride=(1, 1), padding=(1, 1), groups=64, bias=False)
            (norm_k): LayerNorm((64,), eps=1e-06, elementwise_affine=True)
            (pool_v): Conv2d(64, 64, kernel_size=(3, 3), stride=(1, 1), padding=(1, 1), groups=64, bias=False)
            (norm_v): LayerNorm((64,), eps=1e-06, elementwise_affine=True)
          )
          (drop_path): DropPath(drop_prob=0.592)
          (norm2): LayerNorm((1536,), eps=1e-06, elementwise_affine=True)
          (mlp): Mlp(
            (fc1): Linear(in_features=1536, out_features=6144, bias=True)
            (act): GELU(approximate=none)
            (drop1): Dropout(p=0.0, inplace=False)
            (norm): Identity()
            (fc2): Linear(in_features=6144, out_features=1536, bias=True)
            (drop2): Dropout(p=0.0, inplace=False)
          )
        )
        (79): MultiScaleBlock(
          (norm1): LayerNorm((1536,), eps=1e-06, elementwise_affine=True)
          (attn): MultiScaleAttention(
            (qkv): Linear(in_features=1536, out_features=4608, bias=True)
            (proj): Linear(in_features=1536, out_features=1536, bias=True)
            (pool_q): Conv2d(64, 64, kernel_size=(3, 3), stride=(1, 1), padding=(1, 1), groups=64, bias=False)
            (norm_q): LayerNorm((64,), eps=1e-06, elementwise_affine=True)
            (pool_k): Conv2d(64, 64, kernel_size=(3, 3), stride=(1, 1), padding=(1, 1), groups=64, bias=False)
            (norm_k): LayerNorm((64,), eps=1e-06, elementwise_affine=True)
            (pool_v): Conv2d(64, 64, kernel_size=(3, 3), stride=(1, 1), padding=(1, 1), groups=64, bias=False)
            (norm_v): LayerNorm((64,), eps=1e-06, elementwise_affine=True)
          )
          (drop_path): DropPath(drop_prob=0.600)
          (norm2): LayerNorm((1536,), eps=1e-06, elementwise_affine=True)
          (mlp): Mlp(
            (fc1): Linear(in_features=1536, out_features=6144, bias=True)
            (act): GELU(approximate=none)
            (drop1): Dropout(p=0.0, inplace=False)
            (norm): Identity()
            (fc2): Linear(in_features=6144, out_features=1536, bias=True)
            (drop2): Dropout(p=0.0, inplace=False)
          )
        )
      )
      (scale2_norm): LayerNorm((192,), eps=1e-06, elementwise_affine=True)
      (scale3_norm): LayerNorm((384,), eps=1e-06, elementwise_affine=True)
      (scale4_norm): LayerNorm((768,), eps=1e-06, elementwise_affine=True)
      (scale5_norm): LayerNorm((1536,), eps=1e-06, elementwise_affine=True)
    )
  )
  (proposal_generator): RPN(
    (rpn_head): StandardRPNHead(
      (conv): Sequential(
        (conv0): Conv2d(
          256, 256, kernel_size=(3, 3), stride=(1, 1), padding=(1, 1)
          (activation): ReLU()
        )
        (conv1): Conv2d(
          256, 256, kernel_size=(3, 3), stride=(1, 1), padding=(1, 1)
          (activation): ReLU()
        )
      )
      (objectness_logits): Conv2d(256, 3, kernel_size=(1, 1), stride=(1, 1))
      (anchor_deltas): Conv2d(256, 12, kernel_size=(1, 1), stride=(1, 1))
    )
    (anchor_generator): DefaultAnchorGenerator(
      (cell_anchors): BufferList()
    )
  )
  (roi_heads): CascadeROIHeads(
    (box_pooler): ROIPooler(
      (level_poolers): ModuleList(
        (0): ROIAlign(output_size=(7, 7), spatial_scale=0.25, sampling_ratio=0, aligned=True)
        (1): ROIAlign(output_size=(7, 7), spatial_scale=0.125, sampling_ratio=0, aligned=True)
        (2): ROIAlign(output_size=(7, 7), spatial_scale=0.0625, sampling_ratio=0, aligned=True)
        (3): ROIAlign(output_size=(7, 7), spatial_scale=0.03125, sampling_ratio=0, aligned=True)
      )
    )
    (box_head): ModuleList(
      (0): FastRCNNConvFCHead(
        (conv1): Conv2d(
          256, 256, kernel_size=(3, 3), stride=(1, 1), padding=(1, 1), bias=False
          (norm): NaiveSyncBatchNorm(256, eps=1e-05, momentum=0.1, affine=True, track_running_stats=True)
          (activation): ReLU()
        )
        (conv2): Conv2d(
          256, 256, kernel_size=(3, 3), stride=(1, 1), padding=(1, 1), bias=False
          (norm): NaiveSyncBatchNorm(256, eps=1e-05, momentum=0.1, affine=True, track_running_stats=True)
          (activation): ReLU()
        )
        (conv3): Conv2d(
          256, 256, kernel_size=(3, 3), stride=(1, 1), padding=(1, 1), bias=False
          (norm): NaiveSyncBatchNorm(256, eps=1e-05, momentum=0.1, affine=True, track_running_stats=True)
          (activation): ReLU()
        )
        (conv4): Conv2d(
          256, 256, kernel_size=(3, 3), stride=(1, 1), padding=(1, 1), bias=False
          (norm): NaiveSyncBatchNorm(256, eps=1e-05, momentum=0.1, affine=True, track_running_stats=True)
          (activation): ReLU()
        )
        (flatten): Flatten(start_dim=1, end_dim=-1)
        (fc1): Linear(in_features=12544, out_features=1024, bias=True)
        (fc_relu1): ReLU()
      )
      (1): FastRCNNConvFCHead(
        (conv1): Conv2d(
          256, 256, kernel_size=(3, 3), stride=(1, 1), padding=(1, 1), bias=False
          (norm): NaiveSyncBatchNorm(256, eps=1e-05, momentum=0.1, affine=True, track_running_stats=True)
          (activation): ReLU()
        )
        (conv2): Conv2d(
          256, 256, kernel_size=(3, 3), stride=(1, 1), padding=(1, 1), bias=False
          (norm): NaiveSyncBatchNorm(256, eps=1e-05, momentum=0.1, affine=True, track_running_stats=True)
          (activation): ReLU()
        )
        (conv3): Conv2d(
          256, 256, kernel_size=(3, 3), stride=(1, 1), padding=(1, 1), bias=False
          (norm): NaiveSyncBatchNorm(256, eps=1e-05, momentum=0.1, affine=True, track_running_stats=True)
          (activation): ReLU()
        )
        (conv4): Conv2d(
          256, 256, kernel_size=(3, 3), stride=(1, 1), padding=(1, 1), bias=False
          (norm): NaiveSyncBatchNorm(256, eps=1e-05, momentum=0.1, affine=True, track_running_stats=True)
          (activation): ReLU()
        )
        (flatten): Flatten(start_dim=1, end_dim=-1)
        (fc1): Linear(in_features=12544, out_features=1024, bias=True)
        (fc_relu1): ReLU()
      )
      (2): FastRCNNConvFCHead(
        (conv1): Conv2d(
          256, 256, kernel_size=(3, 3), stride=(1, 1), padding=(1, 1), bias=False
          (norm): NaiveSyncBatchNorm(256, eps=1e-05, momentum=0.1, affine=True, track_running_stats=True)
          (activation): ReLU()
        )
        (conv2): Conv2d(
          256, 256, kernel_size=(3, 3), stride=(1, 1), padding=(1, 1), bias=False
          (norm): NaiveSyncBatchNorm(256, eps=1e-05, momentum=0.1, affine=True, track_running_stats=True)
          (activation): ReLU()
        )
        (conv3): Conv2d(
          256, 256, kernel_size=(3, 3), stride=(1, 1), padding=(1, 1), bias=False
          (norm): NaiveSyncBatchNorm(256, eps=1e-05, momentum=0.1, affine=True, track_running_stats=True)
          (activation): ReLU()
        )
        (conv4): Conv2d(
          256, 256, kernel_size=(3, 3), stride=(1, 1), padding=(1, 1), bias=False
          (norm): NaiveSyncBatchNorm(256, eps=1e-05, momentum=0.1, affine=True, track_running_stats=True)
          (activation): ReLU()
        )
        (flatten): Flatten(start_dim=1, end_dim=-1)
        (fc1): Linear(in_features=12544, out_features=1024, bias=True)
        (fc_relu1): ReLU()
      )
    )
    (box_predictor): ModuleList(
      (0): FastRCNNOutputLayers(
        (cls_score): Linear(in_features=1024, out_features=11, bias=True)
        (bbox_pred): Linear(in_features=1024, out_features=4, bias=True)
      )
      (1): FastRCNNOutputLayers(
        (cls_score): Linear(in_features=1024, out_features=11, bias=True)
        (bbox_pred): Linear(in_features=1024, out_features=4, bias=True)
      )
      (2): FastRCNNOutputLayers(
        (cls_score): Linear(in_features=1024, out_features=11, bias=True)
        (bbox_pred): Linear(in_features=1024, out_features=4, bias=True)
      )
    )
  )
)
[10/23 11:27:45] d2.data.datasets.coco INFO: Loaded 4437 images in COCO format from /data/ephemeral/home/Seungcheol/level2-objectdetection-cv-07/Split_data/train_0_10.json
[10/23 11:27:45] d2.data.build INFO: Removed 0 images with no usable annotations. 4437 images left.
[10/23 11:27:45] d2.data.build INFO: Distribution of instances among all 10 categories:
…
