…
[38;5;15mtrain[39m[38;5;197m.[39m[38;5;15moutput_dir[39m[38;5;197m=[39m[38;5;186m'[39m[38;5;186m/data/ephemeral/home/Seungcheol/level2-objectdetection-cv-07/swin_rcnn/output[39m[38;5;186m'[39m

[38;5;15moptimizer[39m[38;5;197m.[39m[38;5;15mlr[39m[38;5;197m=[39m[38;5;141m0.0001[39m

[10/18 12:56:12] detectron2 INFO: Full config saved to /data/ephemeral/home/Seungcheol/level2-objectdetection-cv-07/swin_rcnn/output/config.yaml
[10/18 12:56:12] d2.utils.env INFO: Using a generated random seed 12136851
[10/18 12:56:16] detectron2 INFO: Model:
GeneralizedRCNN(
  (backbone): FPN(
    (fpn_lateral2): Conv2d(
      192, 256, kernel_size=(1, 1), stride=(1, 1), bias=False
      (norm): LayerNorm()
    )
    (fpn_output2): Conv2d(
      256, 256, kernel_size=(3, 3), stride=(1, 1), padding=(1, 1), bias=False
      (norm): LayerNorm()
    )
    (fpn_lateral3): Conv2d(
      384, 256, kernel_size=(1, 1), stride=(1, 1), bias=False
      (norm): LayerNorm()
    )
    (fpn_output3): Conv2d(
      256, 256, kernel_size=(3, 3), stride=(1, 1), padding=(1, 1), bias=False
      (norm): LayerNorm()
    )
    (fpn_lateral4): Conv2d(
      768, 256, kernel_size=(1, 1), stride=(1, 1), bias=False
      (norm): LayerNorm()
    )
    (fpn_output4): Conv2d(
      256, 256, kernel_size=(3, 3), stride=(1, 1), padding=(1, 1), bias=False
      (norm): LayerNorm()
    )
    (fpn_lateral5): Conv2d(
      1536, 256, kernel_size=(1, 1), stride=(1, 1), bias=False
      (norm): LayerNorm()
    )
    (fpn_output5): Conv2d(
      256, 256, kernel_size=(3, 3), stride=(1, 1), padding=(1, 1), bias=False
      (norm): LayerNorm()
    )
    (top_block): LastLevelMaxPool()
    (bottom_up): SwinTransformer(
      (patch_embed): PatchEmbed(
        (proj): Conv2d(3, 192, kernel_size=(4, 4), stride=(4, 4))
        (norm): LayerNorm((192,), eps=1e-05, elementwise_affine=True)
      )
      (pos_drop): Dropout(p=0.0, inplace=False)
      (layers): ModuleList(
        (0): BasicLayer(
          (blocks): ModuleList(
            (0): SwinTransformerBlock(
              (norm1): LayerNorm((192,), eps=1e-05, elementwise_affine=True)
              (attn): WindowAttention(
                (qkv): Linear(in_features=192, out_features=576, bias=True)
                (attn_drop): Dropout(p=0.0, inplace=False)
                (proj): Linear(in_features=192, out_features=192, bias=True)
                (proj_drop): Dropout(p=0.0, inplace=False)
                (softmax): Softmax(dim=-1)
              )
              (drop_path): Identity()
              (norm2): LayerNorm((192,), eps=1e-05, elementwise_affine=True)
              (mlp): Mlp(
                (fc1): Linear(in_features=192, out_features=768, bias=True)
                (act): GELU(approximate=none)
                (fc2): Linear(in_features=768, out_features=192, bias=True)
                (drop): Dropout(p=0.0, inplace=False)
              )
            )
            (1): SwinTransformerBlock(
              (norm1): LayerNorm((192,), eps=1e-05, elementwise_affine=True)
              (attn): WindowAttention(
                (qkv): Linear(in_features=192, out_features=576, bias=True)
                (attn_drop): Dropout(p=0.0, inplace=False)
                (proj): Linear(in_features=192, out_features=192, bias=True)
                (proj_drop): Dropout(p=0.0, inplace=False)
                (softmax): Softmax(dim=-1)
              )
              (drop_path): DropPath(drop_prob=0.017)
              (norm2): LayerNorm((192,), eps=1e-05, elementwise_affine=True)
              (mlp): Mlp(
                (fc1): Linear(in_features=192, out_features=768, bias=True)
                (act): GELU(approximate=none)
                (fc2): Linear(in_features=768, out_features=192, bias=True)
                (drop): Dropout(p=0.0, inplace=False)
              )
            )
          )
          (downsample): PatchMerging(
            (reduction): Linear(in_features=768, out_features=384, bias=False)
            (norm): LayerNorm((768,), eps=1e-05, elementwise_affine=True)
          )
        )
        (1): BasicLayer(
          (blocks): ModuleList(
            (0): SwinTransformerBlock(
              (norm1): LayerNorm((384,), eps=1e-05, elementwise_affine=True)
              (attn): WindowAttention(
                (qkv): Linear(in_features=384, out_features=1152, bias=True)
                (attn_drop): Dropout(p=0.0, inplace=False)
                (proj): Linear(in_features=384, out_features=384, bias=True)
                (proj_drop): Dropout(p=0.0, inplace=False)
                (softmax): Softmax(dim=-1)
              )
              (drop_path): DropPath(drop_prob=0.035)
              (norm2): LayerNorm((384,), eps=1e-05, elementwise_affine=True)
              (mlp): Mlp(
                (fc1): Linear(in_features=384, out_features=1536, bias=True)
                (act): GELU(approximate=none)
                (fc2): Linear(in_features=1536, out_features=384, bias=True)
                (drop): Dropout(p=0.0, inplace=False)
              )
            )
            (1): SwinTransformerBlock(
              (norm1): LayerNorm((384,), eps=1e-05, elementwise_affine=True)
              (attn): WindowAttention(
                (qkv): Linear(in_features=384, out_features=1152, bias=True)
                (attn_drop): Dropout(p=0.0, inplace=False)
                (proj): Linear(in_features=384, out_features=384, bias=True)
                (proj_drop): Dropout(p=0.0, inplace=False)
                (softmax): Softmax(dim=-1)
              )
              (drop_path): DropPath(drop_prob=0.052)
              (norm2): LayerNorm((384,), eps=1e-05, elementwise_affine=True)
              (mlp): Mlp(
                (fc1): Linear(in_features=384, out_features=1536, bias=True)
                (act): GELU(approximate=none)
                (fc2): Linear(in_features=1536, out_features=384, bias=True)
                (drop): Dropout(p=0.0, inplace=False)
              )
            )
          )
          (downsample): PatchMerging(
            (reduction): Linear(in_features=1536, out_features=768, bias=False)
            (norm): LayerNorm((1536,), eps=1e-05, elementwise_affine=True)
          )
        )
        (2): BasicLayer(
          (blocks): ModuleList(
            (0): SwinTransformerBlock(
              (norm1): LayerNorm((768,), eps=1e-05, elementwise_affine=True)
              (attn): WindowAttention(
                (qkv): Linear(in_features=768, out_features=2304, bias=True)
                (attn_drop): Dropout(p=0.0, inplace=False)
                (proj): Linear(in_features=768, out_features=768, bias=True)
                (proj_drop): Dropout(p=0.0, inplace=False)
                (softmax): Softmax(dim=-1)
              )
              (drop_path): DropPath(drop_prob=0.070)
              (norm2): LayerNorm((768,), eps=1e-05, elementwise_affine=True)
              (mlp): Mlp(
                (fc1): Linear(in_features=768, out_features=3072, bias=True)
                (act): GELU(approximate=none)
                (fc2): Linear(in_features=3072, out_features=768, bias=True)
                (drop): Dropout(p=0.0, inplace=False)
              )
            )
            (1): SwinTransformerBlock(
              (norm1): LayerNorm((768,), eps=1e-05, elementwise_affine=True)
              (attn): WindowAttention(
                (qkv): Linear(in_features=768, out_features=2304, bias=True)
                (attn_drop): Dropout(p=0.0, inplace=False)
                (proj): Linear(in_features=768, out_features=768, bias=True)
                (proj_drop): Dropout(p=0.0, inplace=False)
                (softmax): Softmax(dim=-1)
              )
              (drop_path): DropPath(drop_prob=0.087)
              (norm2): LayerNorm((768,), eps=1e-05, elementwise_affine=True)
              (mlp): Mlp(
                (fc1): Linear(in_features=768, out_features=3072, bias=True)
                (act): GELU(approximate=none)
                (fc2): Linear(in_features=3072, out_features=768, bias=True)
                (drop): Dropout(p=0.0, inplace=False)
              )
            )
            (2): SwinTransformerBlock(
              (norm1): LayerNorm((768,), eps=1e-05, elementwise_affine=True)
              (attn): WindowAttention(
                (qkv): Linear(in_features=768, out_features=2304, bias=True)
                (attn_drop): Dropout(p=0.0, inplace=False)
                (proj): Linear(in_features=768, out_features=768, bias=True)
                (proj_drop): Dropout(p=0.0, inplace=False)
                (softmax): Softmax(dim=-1)
              )
              (drop_path): DropPath(drop_prob=0.104)
              (norm2): LayerNorm((768,), eps=1e-05, elementwise_affine=True)
              (mlp): Mlp(
                (fc1): Linear(in_features=768, out_features=3072, bias=True)
                (act): GELU(approximate=none)
                (fc2): Linear(in_features=3072, out_features=768, bias=True)
                (drop): Dropout(p=0.0, inplace=False)
              )
            )
            (3): SwinTransformerBlock(
              (norm1): LayerNorm((768,), eps=1e-05, elementwise_affine=True)
              (attn): WindowAttention(
                (qkv): Linear(in_features=768, out_features=2304, bias=True)
                (attn_drop): Dropout(p=0.0, inplace=False)
                (proj): Linear(in_features=768, out_features=768, bias=True)
                (proj_drop): Dropout(p=0.0, inplace=False)
                (softmax): Softmax(dim=-1)
              )
              (drop_path): DropPath(drop_prob=0.122)
              (norm2): LayerNorm((768,), eps=1e-05, elementwise_affine=True)
              (mlp): Mlp(
                (fc1): Linear(in_features=768, out_features=3072, bias=True)
                (act): GELU(approximate=none)
                (fc2): Linear(in_features=3072, out_features=768, bias=True)
                (drop): Dropout(p=0.0, inplace=False)
              )
            )
            (4): SwinTransformerBlock(
              (norm1): LayerNorm((768,), eps=1e-05, elementwise_affine=True)
              (attn): WindowAttention(
                (qkv): Linear(in_features=768, out_features=2304, bias=True)
                (attn_drop): Dropout(p=0.0, inplace=False)
                (proj): Linear(in_features=768, out_features=768, bias=True)
                (proj_drop): Dropout(p=0.0, inplace=False)
                (softmax): Softmax(dim=-1)
              )
              (drop_path): DropPath(drop_prob=0.139)
              (norm2): LayerNorm((768,), eps=1e-05, elementwise_affine=True)
              (mlp): Mlp(
                (fc1): Linear(in_features=768, out_features=3072, bias=True)
                (act): GELU(approximate=none)
                (fc2): Linear(in_features=3072, out_features=768, bias=True)
                (drop): Dropout(p=0.0, inplace=False)
              )
            )
            (5): SwinTransformerBlock(
              (norm1): LayerNorm((768,), eps=1e-05, elementwise_affine=True)
              (attn): WindowAttention(
                (qkv): Linear(in_features=768, out_features=2304, bias=True)
                (attn_drop): Dropout(p=0.0, inplace=False)
                (proj): Linear(in_features=768, out_features=768, bias=True)
                (proj_drop): Dropout(p=0.0, inplace=False)
                (softmax): Softmax(dim=-1)
              )
              (drop_path): DropPath(drop_prob=0.157)
              (norm2): LayerNorm((768,), eps=1e-05, elementwise_affine=True)
              (mlp): Mlp(
                (fc1): Linear(in_features=768, out_features=3072, bias=True)
                (act): GELU(approximate=none)
                (fc2): Linear(in_features=3072, out_features=768, bias=True)
                (drop): Dropout(p=0.0, inplace=False)
              )
            )
            (6): SwinTransformerBlock(
              (norm1): LayerNorm((768,), eps=1e-05, elementwise_affine=True)
              (attn): WindowAttention(
                (qkv): Linear(in_features=768, out_features=2304, bias=True)
                (attn_drop): Dropout(p=0.0, inplace=False)
                (proj): Linear(in_features=768, out_features=768, bias=True)
                (proj_drop): Dropout(p=0.0, inplace=False)
                (softmax): Softmax(dim=-1)
              )
              (drop_path): DropPath(drop_prob=0.174)
              (norm2): LayerNorm((768,), eps=1e-05, elementwise_affine=True)
              (mlp): Mlp(
                (fc1): Linear(in_features=768, out_features=3072, bias=True)
                (act): GELU(approximate=none)
                (fc2): Linear(in_features=3072, out_features=768, bias=True)
                (drop): Dropout(p=0.0, inplace=False)
              )
            )
            (7): SwinTransformerBlock(
              (norm1): LayerNorm((768,), eps=1e-05, elementwise_affine=True)
              (attn): WindowAttention(
                (qkv): Linear(in_features=768, out_features=2304, bias=True)
                (attn_drop): Dropout(p=0.0, inplace=False)
                (proj): Linear(in_features=768, out_features=768, bias=True)
                (proj_drop): Dropout(p=0.0, inplace=False)
                (softmax): Softmax(dim=-1)
              )
              (drop_path): DropPath(drop_prob=0.191)
              (norm2): LayerNorm((768,), eps=1e-05, elementwise_affine=True)
              (mlp): Mlp(
                (fc1): Linear(in_features=768, out_features=3072, bias=True)
                (act): GELU(approximate=none)
                (fc2): Linear(in_features=3072, out_features=768, bias=True)
                (drop): Dropout(p=0.0, inplace=False)
              )
            )
            (8): SwinTransformerBlock(
              (norm1): LayerNorm((768,), eps=1e-05, elementwise_affine=True)
              (attn): WindowAttention(
                (qkv): Linear(in_features=768, out_features=2304, bias=True)
                (attn_drop): Dropout(p=0.0, inplace=False)
                (proj): Linear(in_features=768, out_features=768, bias=True)
                (proj_drop): Dropout(p=0.0, inplace=False)
                (softmax): Softmax(dim=-1)
              )
              (drop_path): DropPath(drop_prob=0.209)
              (norm2): LayerNorm((768,), eps=1e-05, elementwise_affine=True)
              (mlp): Mlp(
                (fc1): Linear(in_features=768, out_features=3072, bias=True)
                (act): GELU(approximate=none)
                (fc2): Linear(in_features=3072, out_features=768, bias=True)
                (drop): Dropout(p=0.0, inplace=False)
              )
            )
            (9): SwinTransformerBlock(
              (norm1): LayerNorm((768,), eps=1e-05, elementwise_affine=True)
              (attn): WindowAttention(
                (qkv): Linear(in_features=768, out_features=2304, bias=True)
                (attn_drop): Dropout(p=0.0, inplace=False)
                (proj): Linear(in_features=768, out_features=768, bias=True)
                (proj_drop): Dropout(p=0.0, inplace=False)
                (softmax): Softmax(dim=-1)
              )
              (drop_path): DropPath(drop_prob=0.226)
              (norm2): LayerNorm((768,), eps=1e-05, elementwise_affine=True)
              (mlp): Mlp(
                (fc1): Linear(in_features=768, out_features=3072, bias=True)
                (act): GELU(approximate=none)
                (fc2): Linear(in_features=3072, out_features=768, bias=True)
                (drop): Dropout(p=0.0, inplace=False)
              )
            )
            (10): SwinTransformerBlock(
              (norm1): LayerNorm((768,), eps=1e-05, elementwise_affine=True)
              (attn): WindowAttention(
                (qkv): Linear(in_features=768, out_features=2304, bias=True)
                (attn_drop): Dropout(p=0.0, inplace=False)
                (proj): Linear(in_features=768, out_features=768, bias=True)
                (proj_drop): Dropout(p=0.0, inplace=False)
                (softmax): Softmax(dim=-1)
              )
              (drop_path): DropPath(drop_prob=0.243)
              (norm2): LayerNorm((768,), eps=1e-05, elementwise_affine=True)
              (mlp): Mlp(
                (fc1): Linear(in_features=768, out_features=3072, bias=True)
                (act): GELU(approximate=none)
                (fc2): Linear(in_features=3072, out_features=768, bias=True)
                (drop): Dropout(p=0.0, inplace=False)
              )
            )
            (11): SwinTransformerBlock(
              (norm1): LayerNorm((768,), eps=1e-05, elementwise_affine=True)
              (attn): WindowAttention(
                (qkv): Linear(in_features=768, out_features=2304, bias=True)
                (attn_drop): Dropout(p=0.0, inplace=False)
                (proj): Linear(in_features=768, out_features=768, bias=True)
                (proj_drop): Dropout(p=0.0, inplace=False)
                (softmax): Softmax(dim=-1)
              )
              (drop_path): DropPath(drop_prob=0.261)
              (norm2): LayerNorm((768,), eps=1e-05, elementwise_affine=True)
              (mlp): Mlp(
                (fc1): Linear(in_features=768, out_features=3072, bias=True)
                (act): GELU(approximate=none)
                (fc2): Linear(in_features=3072, out_features=768, bias=True)
                (drop): Dropout(p=0.0, inplace=False)
              )
            )
            (12): SwinTransformerBlock(
              (norm1): LayerNorm((768,), eps=1e-05, elementwise_affine=True)
              (attn): WindowAttention(
                (qkv): Linear(in_features=768, out_features=2304, bias=True)
                (attn_drop): Dropout(p=0.0, inplace=False)
                (proj): Linear(in_features=768, out_features=768, bias=True)
                (proj_drop): Dropout(p=0.0, inplace=False)
                (softmax): Softmax(dim=-1)
              )
              (drop_path): DropPath(drop_prob=0.278)
              (norm2): LayerNorm((768,), eps=1e-05, elementwise_affine=True)
              (mlp): Mlp(
                (fc1): Linear(in_features=768, out_features=3072, bias=True)
                (act): GELU(approximate=none)
                (fc2): Linear(in_features=3072, out_features=768, bias=True)
                (drop): Dropout(p=0.0, inplace=False)
              )
            )
            (13): SwinTransformerBlock(
              (norm1): LayerNorm((768,), eps=1e-05, elementwise_affine=True)
              (attn): WindowAttention(
                (qkv): Linear(in_features=768, out_features=2304, bias=True)
                (attn_drop): Dropout(p=0.0, inplace=False)
                (proj): Linear(in_features=768, out_features=768, bias=True)
                (proj_drop): Dropout(p=0.0, inplace=False)
                (softmax): Softmax(dim=-1)
              )
              (drop_path): DropPath(drop_prob=0.296)
              (norm2): LayerNorm((768,), eps=1e-05, elementwise_affine=True)
              (mlp): Mlp(
                (fc1): Linear(in_features=768, out_features=3072, bias=True)
                (act): GELU(approximate=none)
                (fc2): Linear(in_features=3072, out_features=768, bias=True)
                (drop): Dropout(p=0.0, inplace=False)
              )
            )
            (14): SwinTransformerBlock(
              (norm1): LayerNorm((768,), eps=1e-05, elementwise_affine=True)
              (attn): WindowAttention(
                (qkv): Linear(in_features=768, out_features=2304, bias=True)
                (attn_drop): Dropout(p=0.0, inplace=False)
                (proj): Linear(in_features=768, out_features=768, bias=True)
                (proj_drop): Dropout(p=0.0, inplace=False)
                (softmax): Softmax(dim=-1)
              )
              (drop_path): DropPath(drop_prob=0.313)
              (norm2): LayerNorm((768,), eps=1e-05, elementwise_affine=True)
              (mlp): Mlp(
                (fc1): Linear(in_features=768, out_features=3072, bias=True)
                (act): GELU(approximate=none)
                (fc2): Linear(in_features=3072, out_features=768, bias=True)
                (drop): Dropout(p=0.0, inplace=False)
              )
            )
            (15): SwinTransformerBlock(
              (norm1): LayerNorm((768,), eps=1e-05, elementwise_affine=True)
              (attn): WindowAttention(
                (qkv): Linear(in_features=768, out_features=2304, bias=True)
                (attn_drop): Dropout(p=0.0, inplace=False)
                (proj): Linear(in_features=768, out_features=768, bias=True)
                (proj_drop): Dropout(p=0.0, inplace=False)
                (softmax): Softmax(dim=-1)
              )
              (drop_path): DropPath(drop_prob=0.330)
              (norm2): LayerNorm((768,), eps=1e-05, elementwise_affine=True)
              (mlp): Mlp(
                (fc1): Linear(in_features=768, out_features=3072, bias=True)
                (act): GELU(approximate=none)
                (fc2): Linear(in_features=3072, out_features=768, bias=True)
                (drop): Dropout(p=0.0, inplace=False)
              )
            )
            (16): SwinTransformerBlock(
              (norm1): LayerNorm((768,), eps=1e-05, elementwise_affine=True)
              (attn): WindowAttention(
                (qkv): Linear(in_features=768, out_features=2304, bias=True)
                (attn_drop): Dropout(p=0.0, inplace=False)
                (proj): Linear(in_features=768, out_features=768, bias=True)
                (proj_drop): Dropout(p=0.0, inplace=False)
                (softmax): Softmax(dim=-1)
              )
              (drop_path): DropPath(drop_prob=0.348)
              (norm2): LayerNorm((768,), eps=1e-05, elementwise_affine=True)
              (mlp): Mlp(
                (fc1): Linear(in_features=768, out_features=3072, bias=True)
                (act): GELU(approximate=none)
                (fc2): Linear(in_features=3072, out_features=768, bias=True)
                (drop): Dropout(p=0.0, inplace=False)
              )
            )
            (17): SwinTransformerBlock(
              (norm1): LayerNorm((768,), eps=1e-05, elementwise_affine=True)
              (attn): WindowAttention(
                (qkv): Linear(in_features=768, out_features=2304, bias=True)
                (attn_drop): Dropout(p=0.0, inplace=False)
                (proj): Linear(in_features=768, out_features=768, bias=True)
                (proj_drop): Dropout(p=0.0, inplace=False)
                (softmax): Softmax(dim=-1)
              )
              (drop_path): DropPath(drop_prob=0.365)
              (norm2): LayerNorm((768,), eps=1e-05, elementwise_affine=True)
              (mlp): Mlp(
                (fc1): Linear(in_features=768, out_features=3072, bias=True)
                (act): GELU(approximate=none)
                (fc2): Linear(in_features=3072, out_features=768, bias=True)
                (drop): Dropout(p=0.0, inplace=False)
              )
            )
          )
          (downsample): PatchMerging(
            (reduction): Linear(in_features=3072, out_features=1536, bias=False)
            (norm): LayerNorm((3072,), eps=1e-05, elementwise_affine=True)
          )
        )
        (3): BasicLayer(
          (blocks): ModuleList(
            (0): SwinTransformerBlock(
              (norm1): LayerNorm((1536,), eps=1e-05, elementwise_affine=True)
              (attn): WindowAttention(
                (qkv): Linear(in_features=1536, out_features=4608, bias=True)
                (attn_drop): Dropout(p=0.0, inplace=False)
                (proj): Linear(in_features=1536, out_features=1536, bias=True)
                (proj_drop): Dropout(p=0.0, inplace=False)
                (softmax): Softmax(dim=-1)
              )
              (drop_path): DropPath(drop_prob=0.383)
              (norm2): LayerNorm((1536,), eps=1e-05, elementwise_affine=True)
              (mlp): Mlp(
                (fc1): Linear(in_features=1536, out_features=6144, bias=True)
                (act): GELU(approximate=none)
                (fc2): Linear(in_features=6144, out_features=1536, bias=True)
                (drop): Dropout(p=0.0, inplace=False)
              )
            )
            (1): SwinTransformerBlock(
              (norm1): LayerNorm((1536,), eps=1e-05, elementwise_affine=True)
              (attn): WindowAttention(
                (qkv): Linear(in_features=1536, out_features=4608, bias=True)
                (attn_drop): Dropout(p=0.0, inplace=False)
                (proj): Linear(in_features=1536, out_features=1536, bias=True)
                (proj_drop): Dropout(p=0.0, inplace=False)
                (softmax): Softmax(dim=-1)
              )
              (drop_path): DropPath(drop_prob=0.400)
              (norm2): LayerNorm((1536,), eps=1e-05, elementwise_affine=True)
              (mlp): Mlp(
                (fc1): Linear(in_features=1536, out_features=6144, bias=True)
                (act): GELU(approximate=none)
                (fc2): Linear(in_features=6144, out_features=1536, bias=True)
                (drop): Dropout(p=0.0, inplace=False)
              )
            )
          )
        )
      )
      (norm0): LayerNorm((192,), eps=1e-05, elementwise_affine=True)
      (norm1): LayerNorm((384,), eps=1e-05, elementwise_affine=True)
      (norm2): LayerNorm((768,), eps=1e-05, elementwise_affine=True)
      (norm3): LayerNorm((1536,), eps=1e-05, elementwise_affine=True)
    )
  )
  (proposal_generator): RPN(
    (rpn_head): StandardRPNHead(
      (conv): Sequential(
        (conv0): Conv2d(
          256, 256, kernel_size=(3, 3), stride=(1, 1), padding=(1, 1)
          (activation): ReLU()
        )
        (conv1): Conv2d(
          256, 256, kernel_size=(3, 3), stride=(1, 1), padding=(1, 1)
          (activation): ReLU()
        )
      )
      (objectness_logits): Conv2d(256, 3, kernel_size=(1, 1), stride=(1, 1))
      (anchor_deltas): Conv2d(256, 12, kernel_size=(1, 1), stride=(1, 1))
    )
    (anchor_generator): DefaultAnchorGenerator(
      (cell_anchors): BufferList()
    )
  )
  (roi_heads): CascadeROIHeads(
    (box_pooler): ROIPooler(
      (level_poolers): ModuleList(
        (0): ROIAlign(output_size=(7, 7), spatial_scale=0.25, sampling_ratio=0, aligned=True)
        (1): ROIAlign(output_size=(7, 7), spatial_scale=0.125, sampling_ratio=0, aligned=True)
        (2): ROIAlign(output_size=(7, 7), spatial_scale=0.0625, sampling_ratio=0, aligned=True)
        (3): ROIAlign(output_size=(7, 7), spatial_scale=0.03125, sampling_ratio=0, aligned=True)
      )
    )
    (box_head): ModuleList(
      (0): FastRCNNConvFCHead(
        (conv1): Conv2d(
          256, 256, kernel_size=(3, 3), stride=(1, 1), padding=(1, 1), bias=False
          (norm): LayerNorm()
          (activation): ReLU()
        )
        (conv2): Conv2d(
          256, 256, kernel_size=(3, 3), stride=(1, 1), padding=(1, 1), bias=False
          (norm): LayerNorm()
          (activation): ReLU()
        )
        (conv3): Conv2d(
          256, 256, kernel_size=(3, 3), stride=(1, 1), padding=(1, 1), bias=False
          (norm): LayerNorm()
          (activation): ReLU()
        )
        (conv4): Conv2d(
          256, 256, kernel_size=(3, 3), stride=(1, 1), padding=(1, 1), bias=False
          (norm): LayerNorm()
          (activation): ReLU()
        )
        (flatten): Flatten(start_dim=1, end_dim=-1)
        (fc1): Linear(in_features=12544, out_features=1024, bias=True)
        (fc_relu1): ReLU()
      )
      (1): FastRCNNConvFCHead(
        (conv1): Conv2d(
          256, 256, kernel_size=(3, 3), stride=(1, 1), padding=(1, 1), bias=False
          (norm): LayerNorm()
          (activation): ReLU()
        )
        (conv2): Conv2d(
          256, 256, kernel_size=(3, 3), stride=(1, 1), padding=(1, 1), bias=False
          (norm): LayerNorm()
          (activation): ReLU()
        )
        (conv3): Conv2d(
          256, 256, kernel_size=(3, 3), stride=(1, 1), padding=(1, 1), bias=False
          (norm): LayerNorm()
          (activation): ReLU()
        )
        (conv4): Conv2d(
          256, 256, kernel_size=(3, 3), stride=(1, 1), padding=(1, 1), bias=False
          (norm): LayerNorm()
          (activation): ReLU()
        )
        (flatten): Flatten(start_dim=1, end_dim=-1)
        (fc1): Linear(in_features=12544, out_features=1024, bias=True)
        (fc_relu1): ReLU()
      )
      (2): FastRCNNConvFCHead(
        (conv1): Conv2d(
          256, 256, kernel_size=(3, 3), stride=(1, 1), padding=(1, 1), bias=False
          (norm): LayerNorm()
          (activation): ReLU()
        )
        (conv2): Conv2d(
          256, 256, kernel_size=(3, 3), stride=(1, 1), padding=(1, 1), bias=False
          (norm): LayerNorm()
          (activation): ReLU()
        )
        (conv3): Conv2d(
          256, 256, kernel_size=(3, 3), stride=(1, 1), padding=(1, 1), bias=False
          (norm): LayerNorm()
          (activation): ReLU()
        )
        (conv4): Conv2d(
          256, 256, kernel_size=(3, 3), stride=(1, 1), padding=(1, 1), bias=False
          (norm): LayerNorm()
          (activation): ReLU()
        )
        (flatten): Flatten(start_dim=1, end_dim=-1)
        (fc1): Linear(in_features=12544, out_features=1024, bias=True)
        (fc_relu1): ReLU()
      )
    )
    (box_predictor): ModuleList(
      (0): FastRCNNOutputLayers(
        (cls_score): Linear(in_features=1024, out_features=11, bias=True)
        (bbox_pred): Linear(in_features=1024, out_features=4, bias=True)
      )
      (1): FastRCNNOutputLayers(
        (cls_score): Linear(in_features=1024, out_features=11, bias=True)
        (bbox_pred): Linear(in_features=1024, out_features=4, bias=True)
      )
      (2): FastRCNNOutputLayers(
        (cls_score): Linear(in_features=1024, out_features=11, bias=True)
        (bbox_pred): Linear(in_features=1024, out_features=4, bias=True)
      )
    )
  )
)
[10/18 12:56:18] d2.data.datasets.coco INFO: Loaded 4437 images in COCO format from /data/ephemeral/home/Seungcheol/level2-objectdetection-cv-07/Split_data/train_0_10.json
[10/18 12:56:18] d2.data.build INFO: Removed 0 images with no usable annotations. 4437 images left.
[10/18 12:56:18] d2.data.build INFO: Distribution of instances among all 10 categories:
…
